ComputerVision/CNN/checkpoints/LeNetLast.pt (torch, 251551 bytes, 10 tensors)

cnn_model.0.weight f4 [6, 3, 5, 5]
0	0x3c556e1d	0.013026741
1	0xbd4e9bef	-0.05044168
2	0x3c4bcabf	0.012438475
3	0x3d8225a5	0.063548364
4	0x3d4bb26b	0.0497307
5	0x3df99f56	0.12188594
6	0x3b99449f	0.0046773697
7	0xbbb99771	-0.005663805
8	0xbda256ba	-0.07926698
9	0x3daad83e	0.08342026
10	0x3e0fbea4	0.14037567
11	0x3beb048d	0.0071721734
12	0x3c345e84	0.011008862
13	0xbe2a1d4b	-0.16612737
14	0x3cce3af6	0.0251746
15	0x3dcc69c6	0.09981112
16	0x3e271214	0.1631549
17	0x3d0e80ba	0.034790732
18	0xbe3fe7a8	-0.18740714
19	0x3e08d290	0.13361573
20	0x3e022d35	0.12712558
21	0x3e572db1	0.21013524
22	0xbdcdda65	-0.10051421
23	0xbc847359	-0.016168283
24	0x3e38d7fa	0.18051139
25	0xbdf9e8cb	-0.12202605
26	0xbd8fb28b	-0.07016476
27	0xbd03b98f	-0.032159384
28	0xbe059386	-0.13044557
29	0xbdcc6493	-0.099801205
30	0xbd8cce88	-0.0687533
31	0xbd80ee02	-0.062953964
32	0xbde65051	-0.11245788
33	0xbd7923b8	-0.06082508
34	0x3c85129a	0.016244221
35	0xbd2e4039	-0.042541716
36	0xbda37cfe	-0.07982825
37	0xbc3a984f	-0.011388852
38	0xbe39ef84	-0.18157774
39	0xbae1d5c5	-0.0017229846
40	0x3dd7a8e5	0.10530261
41	0xbd97e1a1	-0.07416082
42	0xbd4f3617	-0.050588693
43	0xbe38a4a8	-0.18031561
44	0x3d942c31	0.07234991
45	0x3e1a7133	0.15082245
46	0x3e1002c5	0.14063556
47	0xbe221e86	-0.15831956
48	0xbdcb2b34	-0.0992035
49	0x3d74369b	0.05962239
50	0xbdaa85d5	-0.08326308
51	0x3da90125	0.082521714
52	0x3ba16de0	0.004926428
53	0xbd547568	-0.05186978
54	0x3d57652b	0.052586716
55	0x3db97138	0.09054798
56	0x3d9590b6	0.07302992
57	0x3ce6cacf	0.028172879
58	0x3d1dcf86	0.038527988
59	0x3de6ab3f	0.11263131
60	0x3d9a7e84	0.07543662
61	0x3d9f387e	0.07774447
62	0x3c4883ce	0.012238456
63	0xbdd78f90	-0.10525429
64	0xbbfd7939	-0.007735398
65	0x3c2ba506	0.010476356
66	0xbcc670b2	-0.02422366
67	0xbddda6e7	-0.1082285
68	0xbd98a868	-0.07453996
69	0x3e03b38f	0.12861465
70	0x3d801fd8	0.06256074
71	0x3d91c4bc	0.07117602
72	0xbd722b04	-0.059123054
73	0x3d82c464	0.06385115
74	0xbd6ffd11	-0.058590952
75	0x3d43afeb	0.04777519
76	0x3d944175	0.072390474
77	0xbd1d3300	-0.038378716
78	0x3cde3787	0.027126087
79	0x3de63ad7	0.112416916
80	0x3d12edd3	0.035871338
81	0xbd08c288	-0.033388644
82	0x3ddfdbd9	0.109306045
83	0x3dcf0d12	0.10109915
84	0xbc0f212c	-0.008735936
85	0xbd16c90b	-0.036812823
86	0x3dc10a5d	0.09425805
87	0xbde28cc6	-0.11062007
88	0xbd1d705d	-0.038437236
89	0x3c41536a	0.011799673
90	0xbd6a646b	-0.057224672
91	0xbd55691a	-0.052102186
92	0xbc13e8a9	-0.0090276385
93	0x3d1067a7	0.0352551
94	0xbd032452	-0.03201706
95	0x3cbc1100	0.022957325
96	0xbda0122f	-0.07815968
97	0xbd948aa0	-0.07253003
98	0xbd95e07b	-0.07318207
99	0xbb7b2f04	-0.0038327584
100	0x3c681c15	0.0141668515
101	0xbc85c49c	-0.016329102
102	0x3e143d5d	0.14476533
103	0x3df7a751	0.1209246
104	0x3c9505f1	0.01819131
105	0x3e05a09d	0.1304955
106	0xbd319576	-0.043355428
107	0x3e2201c8	0.15820992
108	0xbcf0fc45	-0.029417166
109	0x3e2fcd3c	0.17168134
110	0xbdc3aa5f	-0.0955398
111	0xbdf335fb	-0.1187553
112	0x3cc26be5	0.023733089
113	0xbd16015f	-0.0366224
114	0xbd99c910	-0.07509053
115	0xbc3aa7aa	-0.011392513
116	0xbd47c42f	-0.04877108
117	0xbe3e7946	-0.1860095
118	0xbd566da1	-0.052350644
119	0xbde4574a	-0.111494616
120	0x3e0a9783	0.1353436
121	0xbd46f467	-0.048572924
122	0x3d250b2b	0.040293854
123	0x3d395961	0.045251254
124	0x3dcf05b3	0.10108509
125	0xbcfdc9a3	-0.030979937
126	0x3db9e17b	0.0907621
127	0x3e134482	0.14381602
128	0xbc694658	-0.014237963
129	0x3d7aa3a0	0.0611912
130	0xbd4c9f69	-0.049956713
131	0xbcec2971	-0.028828355
132	0xbd61b761	-0.055106524
133	0x3d90bb28	0.07066947
134	0xbd1a4722	-0.037665494
135	0xbcb13897	-0.02163343
136	0xbd3da5ae	-0.046300583
137	0xbd9721ba	-0.0737948
138	0xbd351f68	-0.044219404
139	0xbd40a8ff	-0.047036167
140	0x3d24140f	0.040058192
141	0xbd3b5cb0	-0.04574269
142	0xbdff52cd	-0.12466965
143	0xbd29a1c3	-0.041414034
144	0xbe110236	-0.14161
145	0xbce1a2dc	-0.027543478
146	0x3d8b7bc9	0.068107195
147	0x3cde0b75	0.027105073
148	0x3cd0982a	0.025463182
149	0xbd5a3bb0	-0.05327958
150	0xbd76d731	-0.060263816
151	0x3d5540ef	0.05206388
152	0x3d00764e	0.031362824
153	0xbc62efa9	-0.013851085
154	0x3d91913b	0.07107779
155	0xbddd7563	-0.10813405
156	0x3c1b4733	0.009477424
157	0xbda6f149	-0.0815149
158	0xbd371e98	-0.04470691
159	0xbe02d214	-0.12775451
160	0xbe2a0b4a	-0.16605869
161	0xbdb8f8cf	-0.090318315
162	0xbde83926	-0.11339025
163	0x3d0f1f71	0.034942094
164	0xbd2315de	-0.039815776
165	0xbe148888	-0.14505208
166	0xbd660b95	-0.05616339
167	0xbdb2182b	-0.08696016
168	0x3d9e1a4d	0.0771986
169	0x389246ac	6.974986e-05
170	0xbe1609cd	-0.14652176
171	0xbe1ea6dd	-0.15493341
172	0xbdb8d132	-0.09024276
173	0x3d1717b4	0.03688784
174	0xbd252b62	-0.040324576
175	0xbb5db43a	-0.0033829347
176	0xbc9887fc	-0.01861953
177	0xbd4e763c	-0.050405726
178	0x3d869331	0.06571043
179	0x3d8cd9e0	0.06877494
180	0xbbe83f82	-0.007087649
181	0x3d8dc585	0.069224395
182	0x3d79c335	0.06097718
183	0x3af766e0	0.0018875264
184	0x3aa83fd4	0.0012836405
185	0x3dce4fdd	0.100738265
186	0x3dcdde3a	0.10052152
187	0xbcab6adb	-0.020924976
188	0x3dec3351	0.11533225
189	0xbdad4d62	-0.08462025
190	0xbc8ceff9	-0.017204272
191	0x3ddf0c3e	0.10891007
192	0xbd43096f	-0.04761642
193	0xbd6f6f01	-0.05845547
194	0x3cdfcaa0	0.027318299
195	0x3e10fcbf	0.14158915
196	0x3e1d276f	0.15347074
197	0xbcfd3c8d	-0.030912662
198	0xbd8c13bd	-0.06839702
199	0xbd0ab9be	-0.033868544
200	0x3d75cc9b	0.06000958
201	0xbbe9a549	-0.007130299
202	0xbc3f6393	-0.011681455
203	0x3c98d491	0.018656047
204	0xbdc1b43c	-0.09458205
205	0x3daf770c	0.08567628
206	0x3dc907eb	0.09815963
207	0x3da311cc	0.07962379
208	0xbd639025	-0.05555739
209	0x3d206a07	0.039163616
210	0xbd2d3c94	-0.0422941
211	0x3c337518	0.01095321
212	0x3d24a3c5	0.040195245
213	0x3cc8b21c	0.024498992
214	0xbccf4547	-0.025301589
215	0x3dab77f7	0.08372491
216	0x3e267a1c	0.16257519
217	0x3d8caf27	0.06869345
218	0xbd584b81	-0.05280638
219	0x3cf3fb5e	0.029782947
220	0xbc2e984a	-0.010656426
221	0x3e440f56	0.19146475
222	0x3dd28e5f	0.102810614
223	0x3deaa9ff	0.114582054
224	0xbdda1102	-0.10647775
225	0xbddeedae	-0.108851776
226	0xbd8884c2	-0.066659465
227	0xbd9bbeed	-0.076047756
228	0x3ae50907	0.0017474004
229	0xbe1f7526	-0.15572032
230	0x3db6dcdb	0.089288436
231	0xbc34492c	-0.011003774
232	0x3d04c55b	0.032414775
233	0x3cce823f	0.02520859
234	0xbdb91209	-0.09036643
235	0x3d985dc0	0.074397564
236	0x3db112c7	0.086461596
237	0x3dbb9b06	0.09160428
238	0x3e06888f	0.1313803
239	0xbd1bfebf	-0.03808474
240	0x3df384c6	0.11890559
241	0x3e1821f5	0.14856704
242	0x3c3bb23a	0.011456067
243	0x3e21b8b2	0.15793112
244	0xbc0fbf73	-0.008773672
245	0x3e0bf0b0	0.13666034
246	0x3e30ae82	0.1725407
247	0x3e101a2d	0.14072485
248	0xbd800a15	-0.06251923
249	0x3d9e36e9	0.07725317
250	0x3dbf8942	0.09352352
251	0x3d8be40b	0.06830605
252	0x3d522ebe	0.051314108
253	0x3cd138b7	0.025539739
254	0x3d2b18d2	0.041771717
255	0xbe110106	-0.14160547

cnn_model.0.bias f4 [6]
0	0xbe8f1ee2	-0.2795325
1	0xbef54b29	-0.47908905
2	0xbe7879c1	-0.24265195
3	0xbd4131ef	-0.04716676
4	0x3da6d1c3	0.081454776
5	0x3dfbf187	0.12301927

cnn_model.3.weight f4 [16, 6, 5, 5]
0	0x3d3a8e5e	0.04554593
1	0x3dfc9882	0.12333776
2	0x3beb23be	0.0071758917
3	0x3dd22dbb	0.10262629
4	0x3dce411d	0.10071013
5	0x3d3db797	0.046317663
6	0x3de7a2e7	0.11310368
7	0x3e460b01	0.19340135
8	0xbdf97d43	-0.12182095
9	0x3ca89896	0.020580571
10	0xbd759b82	-0.059962757
11	0x3d44a3b3	0.04800768
12	0x3ea5740c	0.323151
13	0xbd83e231	-0.06439627
14	0xbe008149	-0.12549318
15	0xbd9cf184	-0.07663253
16	0x3e13b33b	0.1442384
17	0x3ebe5094	0.3717085
18	0xbd91eb20	-0.07124925
19	0xbdec8906	-0.11549573
20	0x3c67f334	0.014157105
21	0x3df29447	0.11844688
22	0x3e64d2f8	0.22346103
23	0x3d66a04d	0.05630522
24	0xbd5d95d8	-0.05409798
25	0xbd5fc6c4	-0.054632917
26	0x3de2a3af	0.110663764
27	0x3e0da898	0.13833845
28	0x3dacfcbd	0.084466435
29	0x3d52f0e3	0.05149926
30	0x3cd3fc52	0.025877152
31	0x3e03c213	0.12867002
32	0x3e1da62f	0.15395425
33	0x3e2b1297	0.1670631
34	0x3d1691b5	0.03676005
35	0xbca8763e	-0.020564195
36	0x3d9502cd	0.07275925
37	0x3de2e966	0.110796735
38	0x3de013f8	0.10941309
39	0xbdc30949	-0.095232554
40	0x3d5d0434	0.053959087
41	0x3dd381ab	0.103274666
42	0x3cae90c2	0.02130926
43	0x3e17dbec	0.14829987
44	0x3d22a7d5	0.03971084
45	0x3dad4941	0.08461238
46	0x3be94454	0.007118741
47	0x3dc06043	0.093933605
48	0x3d94eb3e	0.072714314
49	0xbbf4bc12	-0.007468709
50	0x3de8362e	0.11338459
51	0x3da925fd	0.08259199
52	0xbb66691b	-0.0035157863
53	0x3bf96a93	0.0076115816
54	0xbc4410d1	-0.0119669
55	0x3dbe4058	0.09289616
56	0x3e0c8bee	0.13725254
57	0xbbba5ff0	-0.005687706
58	0xbdc53782	-0.09629728
59	0x3d33bb38	0.043879718
60	0x3e33b584	0.17549711
61	0x3d6be98c	0.057595775
62	0xbdd4fadb	-0.103994094
63	0xbe39fe49	-0.18163408
64	0x3d93c23c	0.07214782
65	0x3d53d6f5	0.05171867
66	0x3c280333	0.010254669
67	0xbdfd8c96	-0.1238033
68	0xbddc2b39	-0.107504316
69	0x3c9a30b6	0.018822055
70	0x3e4fcad9	0.20292224
71	0x3e1b85a9	0.15187706
72	0x3d8240cf	0.063600175
73	0xbd4c031e	-0.04980766
74	0x3c91c09b	0.017792037
75	0xbc43017b	-0.011902208
76	0xbd7400f3	-0.059571218
77	0x3c9fed2b	0.01952227
78	0x3c58c2fe	0.0132300835
79	0xbde504c7	-0.11182552
80	0xbd959df0	-0.07305515
81	0x3d037ef1	0.032103483
82	0xbd85700e	-0.06515513
83	0xbdee6f59	-0.11642332
84	0xbd55baaf	-0.05217999
85	0xbd9e8000	-0.07739258
86	0x3d313745	0.0432656
87	0xbd3729b3	-0.0447175
88	0xbe55f3d2	-0.20893791
89	0x3d78a09f	0.060700055
90	0xbd9ad3c1	-0.0755992
91	0x3e2e3d6c	0.17015618
92	0xbd8d593b	-0.06901785
93	0xbe442431	-0.19154431
94	0x3da46576	0.08027165
95	0x3d680d2b	0.056653183
96	0x3ddd6215	0.10809723
97	0xbd95ec3a	-0.07320447
98	0xbe131d68	-0.14366686
99	0x3baf2bf8	0.0053458177
100	0x3e1964f8	0.14979923
101	0xbc4d1d05	-0.012519126
102	0x3d396bf1	0.045268957
103	0x3d0372ab	0.032091778
104	0xbaa6e064	-0.0012731669
105	0xbc45c27d	-0.012070295
106	0x3d890b17	0.06691568
107	0x3d3df4b5	0.04637595
108	0xbe16ae00	-0.14714813
109	0x3d85655a	0.06513472
110	0xbd2be8d5	-0.041970093
111	0x3e67812c	0.22607869
112	0x3d84ff96	0.06494062
113	0xbe665b5d	-0.2249579
114	0xbd0389fb	-0.03211401
115	0xbddf86c2	-0.10914375
116	0x3e5da728	0.21645796
117	0x3e41d76f	0.18929838
118	0xbe91d21b	-0.2848061
119	0xbe0f523e	-0.13996217
120	0xbc3021f7	-0.010750285
121	0x3d550602	0.052007683
122	0x3e41b227	0.18915616
123	0xbdc863eb	-0.09784683
124	0xbe28c917	-0.1648296
125	0xbdb6c22a	-0.089237526
126	0x3d653489	0.055958305
127	0xbc15775e	-0.009122698
128	0xbcfe1a7b	-0.031018486
129	0xbda6ea5b	-0.081501685
130	0x3d4a68e8	0.049416453
131	0x3d33452c	0.04376714
132	0xbcd78f2d	-0.026313389
133	0xbb7ee090	-0.0038891174
134	0xbd8f6027	-0.070007615
135	0x3dffb539	0.12485737
136	0x3dbb8494	0.09156147
137	0xbe0f5d13	-0.14000349
138	0xbe060b85	-0.13090332
139	0x3d9d4339	0.07678837
140	0x3e80d9de	0.2516622
141	0x3d9eaf35	0.07748262
142	0xbe94a9f1	-0.29035905
143	0xbd0c0028	-0.034179837
144	0x3e1d88ee	0.15384266
145	0x3dfe4cbf	0.12416982
146	0x3d7a1688	0.061056644
147	0xbe36f6a9	-0.17867531
148	0xbd272010	-0.04080206
149	0x3e8bbd04	0.27292645
150	0x3e089835	0.13339312
151	0x3d90dc4a	0.07073267
152	0x3df7558a	0.12076862
153	0x3dada07c	0.084778756
154	0x3c84cf23	0.016212052
155	0xbbcb2f3f	-0.0062007005
156	0x3d77ceb2	0.060499854
157	0xbd6c7f24	-0.05773844
158	0xbde5cd38	-0.11220783
159	0x3cc1314b	0.023583075
160	0xbcf141bc	-0.02945029
161	0xbdf5d77f	-0.12003993
162	0xbdf7759e	-0.120829806
163	0xbd19d1e4	-0.037553683
164	0xbd95ab7f	-0.07308101
165	0x3e07fd72	0.13280275
166	0xbd8576c6	-0.06516795
167	0xbd3b2057	-0.04568514
168	0xbd929bd3	-0.07158627
169	0x3c8d241f	0.017229138
170	0x3d7ac4a0	0.061222672
171	0x3da5541f	0.080726855
172	0x3c96472d	0.018344486
173	0xbc3cafba	-0.011516506
174	0xbc2c0954	-0.010500271
175	0xbd9d7f23	-0.07690265
176	0x3c6753fa	0.014119143
177	0xbb0cd39d	-0.0021488436
178	0xbd7304e1	-0.059330825
179	0x3de81e5f	0.11333918
180	0xbd34b136	-0.044114314
181	0x3d76c9fb	0.060251217
182	0x3de38cd0	0.11110842
183	0x3cabf0dc	0.020988874
184	0xbcb5d87e	-0.022197958
185	0x3e2de50e	0.16981909
186	0x3e05b623	0.13057761
187	0x3de968f9	0.11396975
188	0x3d529c86	0.051418804
189	0xbd6e554c	-0.058186814
190	0x3d9cfa22	0.076648965
191	0x3d2d5dc0	0.042325735
192	0xbdb6fb22	-0.089346185
193	0xbbc38dac	-0.0059678163
194	0x3c698d4f	0.014254882
195	0x3b616b3d	0.0034396194
196	0x3ce85eae	0.02836546
197	0xbd70ec2f	-0.058818992
198	0x3db339e2	0.08751275
199	0xbc257c72	-0.010100471
200	0x3dfc800a	0.12329109
201	0x3e3a6cb0	0.18205523
202	0x3e4a7e51	0.19774748
203	0x3d9d9167	0.07693749
204	0x3e19b144	0.15009028
205	0x3da2d951	0.07951606
206	0xbd0fe64b	-0.035131734
207	0x3d5f548d	0.054523993
208	0xbd8a36c2	-0.067487255
209	0xbd4249ac	-0.04743354
210	0x3aa74770	0.0012762379
211	0xbda5ff26	-0.08105306
212	0xbdd77411	-0.10520185
213	0xbbc2e599	-0.0059477803
214	0xbe05bc2d	-0.13060065
215	0xbe1977f7	-0.14987169
216	0xbd2c459f	-0.042058583
217	0xbd3ba1b8	-0.045808524
218	0xbd9ca2ec	-0.076482624
219	0xbe214c1a	-0.15751687
220	0xbcf4a584	-0.02986408
221	0xbdb8700d	-0.09005747
222	0xbd76c4a2	-0.060246117
223	0xbb7660fd	-0.003759443
224	0xbd56ea96	-0.052469812
225	0x3e627440	0.22114658
226	0x3e176ec2	0.14788345
227	0x3e018527	0.1264845
228	0x3df57634	0.11985436
229	0xbd2ae1b2	-0.041719146
230	0x3e3ce990	0.18448472
231	0x3d977384	0.0739508
232	0x3e18f052	0.14935425
233	0xbad40093	-0.0016174488
234	0xbd82ac5d	-0.06380532
235	0x3e2061b0	0.15662265
236	0x3d8e96aa	0.06962331
237	0xbd2c7e5d	-0.042112697
238	0xbd129961	-0.035790805
239	0xbd91b1b6	-0.07113974
240	0x3c2327e4	0.009958241
241	0xbc18f7fa	-0.009336466
242	0x3ca6a273	0.020341134
243	0xbbe1f6ec	-0.0068958905
244	0xbe060aa4	-0.13089997
245	0xbd5d81ad	-0.054078747
246	0xbdd377ab	-0.10325559
247	0xbcb33fd8	-0.021881029
248	0xbd919bf3	-0.07109823
249	0xbb96628a	-0.0045893835
250	0x3cb8c5a9	0.02255519
251	0xbd7eefc7	-0.06224039
252	0xbe04b292	-0.12958744
253	0x3b8fc5ab	0.0043875775
254	0xbdd02bf9	-0.10164637
255	0x3d659031	0.056045715

cnn_model.3.bias f4 [16]
0	0xbe8659f5	-0.26240507
1	0x3e910a52	0.28328186
2	0xbe6966fa	-0.22793189
3	0xbd9e92df	-0.07742857
4	0xbe77dc30	-0.24205089
5	0xbba72862	-0.0051012496
6	0xbd5ac085	-0.053406257
7	0x3e7fd57a	0.24983779
8	0x3e3f2f8c	0.18670481
9	0xbe1d96e6	-0.15389594
10	0xbdaf4153	-0.085573815
11	0x3e51bd59	0.20482387
12	0x3d4e7aca	0.05041007
13	0x3de97b21	0.11400438
14	0x3e3c350b	0.1837961
15	0x3e00bad2	0.12571266

fc_model.0.weight f4 [120, 400]
0	0xbdb11be4	-0.08647898
1	0xbc7a1bb7	-0.015265397
2	0xbda51507	-0.08060651
3	0xbd774dd2	-0.06037695
4	0xbcee1517	-0.02906279
5	0xbba0fce3	-0.004912959
6	0xbd025d3e	-0.031827204
7	0x3ca8ecf6	0.020620804
8	0x3cdf555b	0.02726238
9	0x3d25e11f	0.040497895
10	0xbdc7fdbd	-0.097651936
11	0xbc8b7476	-0.017023306
12	0x3c96b258	0.018395588
13	0xbdbc0779	-0.09181113
14	0xbd0b0262	-0.03393782
15	0xbce0450a	-0.02737667
16	0xbb614db8	-0.00343786
17	0x3c7170ee	0.014736397
18	0xbd93d6a4	-0.07218674
19	0xbc993799	-0.018703269
20	0xbd0d247b	-0.03445862
21	0xbcbc56e7	-0.022990657
22	0xbe1b52a0	-0.15168238
23	0xbdf0908a	-0.11746319
24	0xb9b77c6f	-0.0003499719
25	0x3d94d636	0.0726742
26	0x3d93712e	0.07199322
27	0x3cff4876	0.031162482
28	0x3d92fdee	0.071773395
29	0x3ce81294	0.028329171
30	0x3cd214d2	0.025644694
31	0x3c52f3fc	0.012875553
32	0x3d6fef81	0.058578018
33	0x3c9e1fed	0.019302333
34	0x3c7eb8c2	0.015546979
35	0xbd16d036	-0.03681966
36	0x3d5c2b73	0.053752374
37	0xbcb8f29e	-0.022576626
38	0xbaf8e059	-0.0018987759
39	0xbb89e2eb	-0.004207959
40	0x3d5991e9	0.053117666
41	0x3d3570b1	0.044296924
42	0x3db2b784	0.08726409
43	0x3ac74db2	0.001520565
44	0xba927e7c	-0.0011176611
45	0xbd50db2f	-0.05099028
46	0x3d1b77eb	0.03795616
47	0xbd92a7a0	-0.07160878
48	0xbd7b5f6f	-0.06137031
49	0xbd025d04	-0.031826988
50	0x3da3de84	0.08001426
51	0xbc2dd3b0	-0.010609552
52	0xbd30e333	-0.043185424
53	0xbdb0c4ab	-0.086312614
54	0x3cd3e949	0.025868075
55	0x3d9bef66	0.07614021
56	0xbcc28806	-0.023746502
57	0x3ca73e10	0.020415336
58	0xbd51f026	-0.051254414
59	0x3cf46f28	0.02983816
60	0x3b33c7a7	0.0027432234
61	0x3a52a2d5	0.0008035128
62	0x3c4e1851	0.01257904
63	0x3d162a04	0.036661163
64	0x3d8420f4	0.06451598
65	0x3c68b00b	0.014202128
66	0x3ce7e721	0.028308453
67	0x3d043ff2	0.032287546
68	0x3d4586ee	0.048224382
69	0x3dc5a393	0.0965034
70	0x3c2c2e40	0.010509074
71	0xbc917d4a	-0.017759938
72	0x3cb2295f	0.021748243
73	0x3ce663da	0.028123785
74	0x3c76ed3e	0.015071211
75	0xbd8a5121	-0.06753755
76	0x3dc93f41	0.09826518
77	0x3d0e4feb	0.034744184
78	0xbcbe39aa	-0.023220856
79	0xbe3d020e	-0.18457815
80	0x3d4a3aa1	0.04937232
81	0x3d35e3be	0.044406645
82	0x3e01cdc2	0.12676147
83	0x3d7f0b51	0.06226665
84	0xbdf20dfe	-0.11819075
85	0x3d25110f	0.04029947
86	0x3c089117	0.008335373
87	0x3d513188	0.051072627
88	0x3d83b7f3	0.0643157
89	0xbda3baf3	-0.07994642
90	0xbd2c17d7	-0.042014923
91	0xbd4b7e5d	-0.049681056
92	0xba50ad35	-0.000796038
93	0xbc369ab3	-0.011145282
94	0x3d2685ff	0.040655132
95	0xbd7b6831	-0.06137866
96	0xbdaf8928	-0.08571082
97	0xbda4db65	-0.08049659
98	0x3c5ef442	0.01360804
99	0xbd7f02ab	-0.062258404
100	0x3d2f7e35	0.04284497
101	0x3d9cd749	0.0765825
102	0x3d08967b	0.033346634
103	0x3cfcf022	0.030876223
104	0x3d9b8a06	0.07594685
105	0xbc8c2940	-0.017109513
106	0x3d8b90cd	0.06814728
107	0xbda2ae9a	-0.07943459
108	0xbd55bf29	-0.052184258
109	0xbca2e853	-0.019886171
110	0xbcb0a2da	-0.021562029
111	0xbd2b42e1	-0.041811828
112	0xbc4a8394	-0.012360472
113	0xbd4321d4	-0.047639683
114	0xbd49c774	-0.04926248
115	0xbd0b66e5	-0.034033675
116	0xbc2dded6	-0.01061221
117	0xbc898bd6	-0.016790312
118	0xbdb40e5c	-0.08791801
119	0xbd109448	-0.035297662
120	0xbd8cbcaf	-0.06871926
121	0xbdf793b8	-0.12088722
122	0x3c382722	0.011239799
123	0xbd6d9bd9	-0.058009956
124	0xbce3af48	-0.027793542
125	0xbd2df26b	-0.042467516
126	0xbb26b8f6	-0.0025439835
127	0x3dac5615	0.08414856
128	0x3dc67d59	0.09691877
129	0x3ca94d94	0.020666875
130	0xbcc422f2	-0.023942444
131	0x3dbde57f	0.092722885
132	0x3d6de7a6	0.058082245
133	0x3c851c0c	0.016248725
134	0xbdd4778b	-0.103743635
135	0x3b2c27ad	0.0026268766
136	0x3cf1cffe	0.029518124
137	0xbd6907c2	-0.056892164
138	0xbd1de5c4	-0.0385492
139	0x3a2a548b	0.0006497583
140	0x3d5fc259	0.054628704
141	0x3d828f2b	0.063749634
142	0xbc2c6b0a	-0.010523567
143	0x3c1cb533	0.009564686
144	0x3d1e600f	0.038665827
145	0x3d33a301	0.043856625
146	0x3ce24915	0.027622739
147	0xbdab4a9e	-0.083638415
148	0x3cedd9a8	0.02903445
149	0x3d30c03b	0.043152075
150	0xbd8e35eb	-0.06943878
151	0xbd95ff7a	-0.07324119
152	0x3ca629c2	0.020283584
153	0xbdd21d3f	-0.102594845
154	0xbd27c72b	-0.040961426
155	0xbda942d9	-0.08264703
156	0xbc14a46f	-0.009072407
157	0x3d833a91	0.06407655
158	0xbd272eb9	-0.040816043
159	0x3c727e05	0.014800553
160	0x3d9acc40	0.07558489
161	0x3c4712bf	0.0121504655
162	0x3cf060b6	0.02934299
163	0x3d099459	0.03358874
164	0xbd49e7f7	-0.049293485
165	0xbbb10e1a	-0.0054032924
166	0x3cf4fad1	0.029904755
167	0xbd2071f6	-0.03917118
168	0xbd2f8aa2	-0.04285682
169	0xbcf0944a	-0.029367585
170	0xbd9427d7	-0.07234161
171	0x3ceaab23	0.028646057
172	0x3cbd79a3	0.02312929
173	0x3cd51262	0.026009742
174	0x3b8e8c34	0.0043502096
175	0xbd182cbd	-0.03715204
176	0xbbb4e6d2	-0.00552068
177	0xbda9f39c	-0.08298418
178	0x3be10d87	0.0068680677
179	0x3dce9bff	0.10088348
180	0xbdf934a5	-0.12168244
181	0xbdbda8c5	-0.09260706
182	0x3c82b86c	0.01595708
183	0xbb8eeaea	-0.0043615
184	0x3d866f9d	0.06564257
185	0xbdc7b5f0	-0.09751499
186	0xbc778618	-0.015107654
187	0x3d5144a1	0.05109084
188	0x3d035d41	0.032071356
189	0x3d3ae94b	0.04563264
190	0x3d13970d	0.036032725
191	0xbd0686ae	-0.032843284
192	0x3c8a8a07	0.01691152
193	0x3c623c4d	0.013808322
194	0xbd7b55c0	-0.061361074
195	0xbd40bbcd	-0.0470541
196	0xbcb02334	-0.021501161
197	0xbd7959e5	-0.060876746
198	0xbdf1613d	-0.11786125
199	0xbdb7c493	-0.089730404
200	0xbbbecd9f	-0.005822852
201	0xbd247e39	-0.040159438
202	0x3d58a4de	0.052891605
203	0xbcc37cc4	-0.023863204
204	0xbcd9a1b3	-0.026566362
205	0xbcac91a0	-0.021065533
206	0xbd206b87	-0.039165046
207	0x3d663a86	0.056208156
208	0xbdac430b	-0.08411225
209	0xbd78721a	-0.06065569
210	0xbd67a9ab	-0.056558292
211	0xbcc6b815	-0.024257699
212	0x3d47085e	0.048591964
213	0x3d69445a	0.05694995
214	0xbcb951b4	-0.022621967
215	0xbcd12eee	-0.025535073
216	0xbce40ded	-0.027838672
217	0x3c9227a8	0.017841175
218	0x3d318f44	0.04334952
219	0x3d643068	0.055710226
220	0xbd64da7b	-0.05587242
221	0x3d724b6b	0.059153955
222	0x3af0016a	0.0018310968
223	0xbcac86a6	-0.0210603
224	0xbc5243fa	-0.01283359
225	0xbd69a574	-0.057042554
226	0xbd16bed8	-0.036803097
227	0xbdf64b06	-0.12026028
228	0xbcdfef65	-0.027335832
229	0x3bd70f13	0.0065630763
230	0x3c8cb031	0.017173858
231	0x3c0acffa	0.008472437
232	0x3cf25809	0.029582994
233	0xbd05617f	-0.032563683
234	0x3cc0b7cc	0.023525141
235	0x3d8837f0	0.06651294
236	0x3ca5d3ac	0.020242535
237	0xbcb44645	-0.022006163
238	0x3c13d167	0.009022093
239	0x3c8656d5	0.016398827
240	0xba874d0c	-0.0010322644
241	0x3d114c22	0.035472997
242	0xbc4aa498	-0.012368344
243	0xbb25dbbe	-0.0025307979
244	0xbc5cfad7	-0.013487539
245	0xbda86ff7	-0.082244806
246	0xbd4e0cdf	-0.050305244
247	0xbe11d99f	-0.14243172
248	0xbc9bca86	-0.01901747
249	0xbcd8b820	-0.026454985
250	0x3d295571	0.04134125
251	0xbc147f14	-0.009063501
252	0xbca4ee9d	-0.02013331
253	0x3cb5353c	0.02212011
254	0x3d515a4d	0.05111151
255	0x3ce26c3a	0.027639497

fc_model.0.bias f4 [120]
0	0xbe30e627	-0.17275296
1	0x3d9b1d7d	0.07573984
2	0x3cc457a6	0.023967575
3	0x3db29f96	0.08721845
4	0x3c8fbb83	0.017545467
5	0x3daf3475	0.08554927
6	0x3d3b4131	0.04571647
7	0xbe070da4	-0.13188797
8	0xbd3120ba	-0.0432441
9	0xbcab07d1	-0.02087775
10	0x3e0b1179	0.13580884
11	0x3c280b07	0.010256535
12	0x3d7b95aa	0.061422028
13	0x3cae6917	0.021290345
14	0x3d4eb159	0.0504621
15	0xbce2d195	-0.027687827
16	0xbe8ccad0	-0.27498484
17	0xbdc0f0c0	-0.094209194
18	0x3d8dda80	0.06926441
19	0xb9603643	-0.00021382519
20	0xbe5653db	-0.20930426
21	0x3db8841d	0.090095736
22	0xbca36d3c	-0.019949548
23	0x3de12daf	0.109950416
24	0x3d5d9067	0.05409279
25	0x3aa65fcb	0.0012693343
26	0x3cb1ebd6	0.0217189
27	0xbd97166f	-0.07377326
28	0xbd720311	-0.059084956
29	0x3dc53352	0.09628929
30	0x3d769e46	0.060209535
31	0xbc68df25	-0.014213358
32	0x3d9a883c	0.07545516
33	0x3e2635dd	0.16231485
34	0xbaf80cd7	-0.0018924725
35	0xbc42c1b0	-0.011886999
36	0x3c644511	0.013932482
37	0x3e30b705	0.17257316
38	0x3d461249	0.04835728
39	0x3dd8cd5b	0.105860434
40	0x3dcf9f52	0.1013781
41	0x3dbf5906	0.09343152
42	0xbd9a5faa	-0.07537778
43	0x3e00d5bc	0.12581533
44	0xbe1cdf6e	-0.15319607
45	0x3d9021d2	0.07037701
46	0xbe2fb3cf	-0.17158435
47	0xbc641b3e	-0.013922511
48	0xbaee32e7	-0.0018173129
49	0xbcbd343e	-0.0230962
50	0x3c9ffb08	0.01952888
51	0x3d58901a	0.0528718
52	0xbde616a7	-0.11234789
53	0x3d7dce30	0.061964214
54	0xbcace6cd	-0.021106148
55	0x3d3873ac	0.04503219
56	0x3e13a024	0.14416558
57	0x3da2ecdf	0.07955336
58	0xbdf5d3e9	-0.12003309
59	0x3cb5572b	0.022136291
60	0x3e19d972	0.15024355
61	0xbdd0629f	-0.101750605
62	0x3c686a0d	0.014185441
63	0xbb2ee36f	-0.0026685854
64	0xbab32e4f	-0.0013670417
65	0xbcb07017	-0.021537824
66	0xbc3ebab0	-0.011641189
67	0xbd2178a1	-0.03942168
68	0xbe127462	-0.14302209
69	0x3e30ac31	0.17253186
70	0xbbe877fa	-0.0070943804
71	0x3de8c05f	0.11364817
72	0x3c93378c	0.017970823
73	0x3e191023	0.14947562
74	0xbc07d6f0	-0.008290991
75	0xbcb2696d	-0.021778787
76	0xbd7ac1a4	-0.061219826
77	0x3e242867	0.16031037
78	0xbc2d07f2	-0.010560976
79	0x3d9ee636	0.07758753
80	0xbde11a26	-0.109913155
81	0xbe065285	-0.13117416
82	0xbd4fc638	-0.050726146
83	0xbcc5fcc4	-0.02416838
84	0xbd6f777c	-0.05846356
85	0xbe2a4f62	-0.16631845
86	0x3de5d7aa	0.11222775
87	0xbe4c81d1	-0.19971396
88	0xbca94be6	-0.020666074
89	0x3dc99710	0.09843266
90	0xbe01e20a	-0.12683883
91	0xbd8febd6	-0.07027404
92	0xbdaace35	-0.08340112
93	0xbda7e411	-0.08197797
94	0x3c4c0f74	0.012454856
95	0x3debfb9b	0.11522599
96	0xbb3b03e2	-0.002853625
97	0x3dd7f105	0.10544018
98	0x3e2e5a2d	0.17026587
99	0x3e092fe3	0.13397174
100	0x3e04bbb0	0.12962222
101	0x3cb026a5	0.021502802
102	0xbb397540	-0.0028298646
103	0xbde75a1f	-0.11296486
104	0xbdd58672	-0.10426034
105	0x3db8b57e	0.09018992
106	0x3d9305f1	0.071788676
107	0xbe16e14b	-0.1473438
108	0x3dde6bac	0.108603805
109	0xbda75509	-0.08170516
110	0x3df6df7e	0.120543465
111	0xbce2b619	-0.027674722
112	0x3c082519	0.008309626
113	0xbd8b2a09	-0.06795127
114	0x3c9e8fd4	0.019355692
115	0xbd50eb50	-0.05100566
116	0x3e00ca2c	0.12577122
117	0xbd26e779	-0.040748093
118	0x3d10e939	0.03537867
119	0xbdcfea7c	-0.10152146

fc_model.2.weight f4 [84, 120]
0	0x3c8f7e04	0.017516144
1	0xbd9b7b8d	-0.07591925
2	0xbe1ed134	-0.15509492
3	0xbdb538cf	-0.08848726
4	0x3d2dfcc2	0.042477377
5	0xbe07abfa	-0.13249198
6	0x3c5ab7ad	0.013349456
7	0xbcc1e9ce	-0.023671057
8	0x3dda77bd	0.106673695
9	0x3e15f02f	0.14642404
10	0xbd33d910	-0.04390818
11	0xbdde4627	-0.10853224
12	0x3d620abe	0.055186026
13	0x3e197bcd	0.14988633
14	0x3dd0213f	0.10162591
15	0x3d7dd4fb	0.061970692
16	0xbe3eb08a	-0.18622032
17	0xbdb3c4e9	-0.08777792
18	0x3e974396	0.2954375
19	0x3da1da70	0.07902992
20	0x3ccd15a7	0.025034739
21	0x3dd0364c	0.10166606
22	0xbdb9b986	-0.09068589
23	0xbd9600ff	-0.07324409
24	0x3dc4abc0	0.09603071
25	0xbe7344cd	-0.23756714
26	0x3d59bfc3	0.053161394
27	0xbe27137a	-0.16316023
28	0xbd412c90	-0.04716164
29	0x3e25ba28	0.16184294
30	0x3e04670c	0.12929934
31	0xbd9990aa	-0.074982956
32	0x3ccf7d28	0.025328234
33	0xbd39ef45	-0.0453942
34	0xbe40a829	-0.18814148
35	0xbbb5262b	-0.0055282316
36	0x3b0d4356	0.0021555028
37	0x3dcdb3e2	0.100440755
38	0xbb994c15	-0.004678259
39	0x3d4565c7	0.048192766
40	0x3e03adf2	0.12859324
41	0xbdbbf3cf	-0.09177362
42	0x3dd5f51d	0.10447142
43	0x3e6870bd	0.22699256
44	0xbd1f9adc	-0.038966045
45	0x3e454254	0.19263583
46	0x3d87894a	0.06617983
47	0xbda03d83	-0.078242324
48	0x3d6ca2f3	0.057772588
49	0xbd3eca45	-0.046579618
50	0xbd4135cc	-0.047170445
51	0x3e093b89	0.13401617
52	0xbe4203dd	-0.18946786
53	0xbe2d667c	-0.16933626
54	0x3dd45b47	0.10368972
55	0x3de0c20b	0.10974511
56	0x3dc7c282	0.09753896
57	0xbdfadd66	-0.1224926
58	0x3dc50cca	0.0962158
59	0x3e08c518	0.13356435
60	0x3d26a5e2	0.040685542
61	0xbda32594	-0.07966152
62	0x3b38a7e7	0.002817625
63	0xbda27bcd	-0.079337694
64	0x3d0cfd99	0.034421537
65	0x3d1642cc	0.036684796
66	0xbdbe55db	-0.092937194
67	0xbe2f2e99	-0.1710762
68	0xbdef5bd9	-0.116874404
69	0x3e103e31	0.14086224
70	0xbe3e5edf	-0.18590878
71	0xbd42a1a4	-0.047517434
72	0xbdd4031a	-0.10352154
73	0xbd9edf35	-0.07757417
74	0x3bb8a875	0.005635316
75	0x3d989888	0.07450968
76	0x3c3af12e	0.011410041
77	0xbd3854b6	-0.04500266
78	0xbdb6a3ef	-0.089179866
79	0xbd854c64	-0.06508711
80	0xbe2d7713	-0.16939954
81	0x3e0157d0	0.12631154
82	0xbd281f2a	-0.041045345
83	0x3c5dcd06	0.013537651
84	0xbd08325b	-0.033251148
85	0x3d111a4d	0.035425473
86	0x3d9298be	0.071580395
87	0xbce99d6a	-0.028517444
88	0xbd3f2856	-0.046669327
89	0x3e7c93b1	0.24665715
90	0xbcabea30	-0.020985693
91	0xbe084c59	-0.13310374
92	0xbdc72851	-0.097244866
93	0x3cd10c3d	0.025518531
94	0x3e248f36	0.16070256
95	0x3d01898a	0.031625308
96	0x3caf02bb	0.021363607
97	0x3ca2089d	0.019779498
98	0x3cd9e48f	0.026598243
99	0x3bc07946	0.005873832
100	0x3e0d1ad0	0.1377976
101	0xbd842c22	-0.0645373
102	0xbe1f3071	-0.15545823
103	0xbcaff57d	-0.021479363
104	0x3e50c59c	0.20387882
105	0x3e6272cf	0.22114109
106	0x3dfdaeb7	0.1238684
107	0x3bd99160	0.0066396445
108	0xbdff7dd1	-0.124751695
109	0x3db940bd	0.09045551
110	0x3dc0ce04	0.09414294
111	0x3a41fa5d	0.0007399673
112	0xbdafde61	-0.08587337
113	0xbe3afed6	-0.18261275
114	0xbc89098d	-0.016728187
115	0x3de6194e	0.11235295
116	0x3d501d7b	0.050809365
117	0xbdca0923	-0.09865024
118	0xbd7124ae	-0.05887287
119	0xbe233bce	-0.15940782
120	0x3d4a0311	0.04931933
121	0xbe0a0cd0	-0.1348145
122	0x3c2fecd1	0.010737614
123	0x3de3254a	0.11091097
124	0xbe270a75	-0.16312583
125	0x3dcaeb09	0.09908111
126	0xbda9c743	-0.08289959
127	0x3aa94b18	0.0012916056
128	0x3c3a35ca	0.011365363
129	0x3bb1f9c7	0.005431387
130	0x3d14af31	0.036299888
131	0x3dd8b0fc	0.10580632
132	0x3da7803d	0.081787564
133	0xbdecc86e	-0.115616664
134	0xbe0f3061	-0.13983299
135	0x3be6dc55	0.0070453086
136	0x3cc23082	0.023704771
137	0xbd121017	-0.035659876
138	0x3dc7bd1b	0.09752866
139	0xbd978d6e	-0.074000224
140	0x3cbee0d2	0.023300562
141	0x3d17d480	0.03706789
142	0x3e2b0f47	0.16705047
143	0xbe0f184a	-0.1397411
144	0x3e977d25	0.29587665
145	0xbcb4d9f8	-0.022076592
146	0xbda3b637	-0.07993739
147	0x3e0fab1b	0.14030115
148	0x3d1315ad	0.035909344
149	0x3e3d4ea7	0.18487035
150	0x3d292769	0.04129735
151	0xbd20539a	-0.03914223
152	0x3d72eb1c	0.05930625
153	0x3d39c4c6	0.045353673
154	0x3db83f98	0.089965045
155	0x3e6482b8	0.2231549
156	0xbd4c7050	-0.049911797
157	0xbe50e947	-0.20401488
158	0x3d963415	0.073341526
159	0xbc70fbe6	-0.014708495
160	0xbda8d181	-0.08243085
161	0x3da58890	0.08082688
162	0x3e10e314	0.14149123
163	0xbd4d5b11	-0.050135676
164	0xbda51f0a	-0.08062561
165	0x3da8c903	0.08241465
166	0xbc924f2e	-0.017860021
167	0xbdcaabed	-0.098960735
168	0xbe5cd9ec	-0.21567506
169	0xbdfcb52a	-0.12339242
170	0xbda3e47e	-0.08002566
171	0xbe052ffa	-0.13006583
172	0x3dd89887	0.10575967
173	0x3ccffe32	0.025389764
174	0x3d8300b3	0.06396618
175	0x3d97fcf4	0.07421294
176	0xbd730e10	-0.059339583
177	0xbde863c5	-0.113471545
178	0xbda69503	-0.081338905
179	0xbe2858ae	-0.16440079
180	0x3d9e60aa	0.07733281
181	0x3d7d9169	0.061906252
182	0x3e1a3c21	0.15062
183	0xbe0e068a	-0.13869682
184	0x3cd852d1	0.026406677
185	0xbc77c0d9	-0.015121662
186	0x3de1bf15	0.11022774
187	0x3d4d67eb	0.050147932
188	0x3d737095	0.05943354
189	0xbd8c03fb	-0.06836697
190	0x3e1210fb	0.1426429
191	0xbe46008e	-0.19336149
192	0xbe581417	-0.21101414
193	0xbd8ae3a6	-0.06781702
194	0xbce1c1b2	-0.027558181
195	0x3bb0b73b	0.0053929365
196	0x3d1bc5e7	0.03803053
197	0xbcfa47d7	-0.030551834
198	0xbe92aa10	-0.28645372
199	0x3c87f181	0.01659465
200	0xbcbecd0f	-0.023291139
201	0x3c4efc8d	0.012633455
202	0xbd867a40	-0.06566286
203	0xbcb9a994	-0.022663869
204	0xbdd252b6	-0.10269682
205	0xbc8f75df	-0.01751226
206	0x3c32512a	0.010883609
207	0xbdabb99f	-0.08385014
208	0xbbec4576	-0.007210429
209	0x3d1fd54b	0.03902177
210	0xbe1b8563	-0.15187602
211	0x3e40b1ce	0.18817827
212	0x3d2d79ca	0.042352475
213	0xbe00dfa3	-0.1258531
214	0xbd91beca	-0.07116468
215	0x3e0e521c	0.1389851
216	0xbda5e509	-0.081003256
217	0xbdf83366	-0.121191785
218	0xbdfffb0d	-0.12499056
219	0xbdbc722c	-0.09201464
220	0x3d5c5869	0.053795252
221	0x3e4621e7	0.1934887
222	0x3c8237de	0.01589578
223	0xbc3c4306	-0.011490589
224	0x3c0d25f7	0.008615009
225	0xbd4bc61e	-0.049749486
226	0xbd6ae7f2	-0.057350107
227	0xbd409d82	-0.04702521
228	0x3e37337b	0.17890732
229	0x3dfe4c24	0.124168664
230	0x3c9c4b80	0.01907897
231	0xbddc82b5	-0.10767118
232	0xbbdc8ad4	-0.006730417
233	0x3d1d5949	0.038415227
234	0x3e52702d	0.20550604
235	0x3d744b1f	0.059641954
236	0xbe71afc3	-0.23602204
237	0xbc5366af	-0.0129029
238	0x3dcb5a28	0.09929305
239	0x3df70c80	0.12062931
240	0x3d8d9099	0.069123454
241	0xbe40eb04	-0.18839651
242	0x3c01fcd8	0.007933818
243	0xbe2251dd	-0.15851541
244	0xbe246120	-0.16052675
245	0xbd0cfb21	-0.034419183
246	0xbdbef9b6	-0.09324972
247	0x3dfa89cc	0.12233314
248	0x3dbf4b10	0.09340489
249	0x3ce0016f	0.027344434
250	0xbda324f5	-0.07966033
251	0x3d92a927	0.071611695
252	0x3d47e2f8	0.04880044
253	0x3dfe28b5	0.12410108
254	0xbe63397d	-0.22189899
255	0xbe404afd	-0.18778606

fc_model.2.bias f4 [84]
0	0x3d9c2407	0.07624059
1	0x3db751cb	0.08951148
2	0xbdde63ca	-0.10858877
3	0x3dd1cf68	0.10244638
4	0x3d82c432	0.063850775
5	0xbd38dc5e	-0.045132034
6	0x3da4c62f	0.08045613
7	0xbcea63f0	-0.028612107
8	0xbe478355	-0.19483693
9	0xbdfb175a	-0.12260313
10	0x3d80c28b	0.06287106
11	0xbe116fd4	-0.14202815
12	0x3dc7db3c	0.097586125
13	0x3c022ea8	0.007945694
14	0xbda6ed25	-0.081507005
15	0xbd879595	-0.066203274
16	0xbe2ed7a5	-0.1707445
17	0xbdf1814d	-0.1179224
18	0xbe6d52ed	-0.23176165
19	0xbd78a96a	-0.06070844
20	0xbcea9a7b	-0.028638115
21	0x3b084304	0.0020791898
22	0x3d8aec0e	0.06783305
23	0xbd6f8135	-0.05847283
24	0xbe392c42	-0.1808329
25	0x3d2d8f53	0.042373013
26	0x3b3ac102	0.002849639
27	0xbe8792f9	-0.2647932
28	0x3dbb8b4c	0.09157428
29	0x3d15fc6d	0.036617685
30	0x3d74e5ef	0.059789594
31	0xbe1c2697	-0.15249096
32	0x3e5aa7bd	0.2135305
33	0x3d866e25	0.06563977
34	0xbe007a87	-0.1254674
35	0xbdaf43b7	-0.085578375
36	0x3bbee7da	0.0058259787
37	0x3d5b8450	0.05359298
38	0x3db495b8	0.08817619
39	0x3bda9b57	0.00667135
40	0xbdaa1405	-0.083046
41	0xbe09caea	-0.13456312
42	0x3d8db599	0.06919403
43	0x3d3b78ec	0.045769617
44	0x3d1b668e	0.0379396
45	0x3dd6e5f9	0.104930826
46	0x3d4ad671	0.049520914
47	0x3e65f2e5	0.22455938
48	0xbddb45b9	-0.10706658
49	0xbcac0e59	-0.021002935
50	0xbd339a41	-0.04384828
51	0xbd9b6242	-0.075871006
52	0x3d35a025	0.04434218
53	0xbd697e9e	-0.057005517
54	0xbdef7670	-0.11692512
55	0xbda1a733	-0.07893219
56	0xbc82fd60	-0.01598996
57	0xbd7c6af7	-0.061625447
58	0x3da2a384	0.079413444
59	0xbbfbb55c	-0.007681532
60	0xbc8c6972	-0.017140124
61	0x3ce42a1f	0.027852116
62	0x3d53e376	0.051730596
63	0xbd63153b	-0.05544017
64	0xbd9e72a7	-0.07736712
65	0xbe189066	-0.14898834
66	0xbe2ff681	-0.17183878
67	0x3ca6858d	0.020327354
68	0xbb18edab	-0.002333502
69	0xbc990b17	-0.018682046
70	0xbb7ab471	-0.0038254524
71	0x3e36b633	0.17842941
72	0x3cdede8e	0.027205732
73	0x3c64041d	0.013916996
74	0xbd79f778	-0.06102702
75	0x3d1e5b56	0.038661323
76	0x3e909cb1	0.28244546
77	0x3d0bc152	0.03411991
78	0x3c4302fc	0.011902567
79	0xbd293be9	-0.0413169
80	0x3d1b8302	0.037966736
81	0xbd8a10ee	-0.0674151
82	0xbc646312	-0.013939636
83	0x3d042de4	0.032270327

fc_model.4.weight f4 [10, 84]
0	0x3e539c7d	0.20665164
1	0x3f00f414	0.50372434
2	0xbed86417	-0.42263862
3	0xbdaebe78	-0.08532423
4	0xbe208b77	-0.15678202
5	0xbe17a1be	-0.14807793
6	0x3efa2fb4	0.4886452
7	0xbf0decc5	-0.55439407
8	0xbeafcb4f	-0.343348
9	0xbea470e6	-0.32117385
10	0x3ebc4b08	0.36775994
11	0xbe9648a7	-0.29352304
12	0xbdacfb2f	-0.08446347
13	0x3ed4b029	0.4154065
14	0xbeb636df	-0.35588738
15	0xbdbb8d57	-0.09157818
16	0xbea28c21	-0.31747535
17	0xbe58bc72	-0.21165636
18	0xbe59d60d	-0.2127306
19	0xbe832ac8	-0.25618577
20	0x3e5cce38	0.21563041
21	0xbd94f269	-0.072727986
22	0xbeca70f2	-0.39539295
23	0xbee6f757	-0.4511058
24	0xbed34da5	-0.41270176
25	0x3edf3fad	0.43603268
26	0xbd8a6713	-0.06757941
27	0xbe943978	-0.28950095
28	0x3dee401e	0.11633323
29	0x3eeb1aab	0.45918784
30	0xbe3e9b5e	-0.18613955
31	0xbeabd862	-0.33563524
32	0x3ed37849	0.41302708
33	0x3ea49c89	0.32150677
34	0xbdaa4e7d	-0.08315752
35	0xbe8347b4	-0.25640643
36	0xbce4b091	-0.027916225
37	0xbd3a2cfe	-0.045453064
38	0xbcc36f10	-0.02385667
39	0xbd7aae58	-0.061201423
40	0xbde3f5c8	-0.111308634
41	0xbe8615a7	-0.26188394
42	0x3eab1ca1	0.3342028
43	0x3eb798b0	0.3585868
44	0xbddb454e	-0.10706578
45	0xbdd29cae	-0.102837905
46	0x3e76a81c	0.24087566
47	0x3e7ca288	0.24671376
48	0xbefb382b	-0.4906629
49	0xbdf1dde3	-0.118099
50	0x3e113748	0.14181244
51	0x3e9ade26	0.3024761
52	0x3e896780	0.26836777
53	0x3edfa3e4	0.43679726
54	0x3e73c5e0	0.23805952
55	0xbec88995	-0.39167467
56	0x3f0e7d22	0.5565969
57	0xbeb4aeac	-0.35289514
58	0x3effd80d	0.4996952
59	0xbeac27fb	-0.33624253
60	0x3e8eadaf	0.27866885
61	0x3eee29c5	0.46516243
62	0xbeccf89c	-0.40033424
63	0x3c750c96	0.014956614
64	0xbee70ac9	-0.45125416
65	0xbd00f321	-0.031481866
66	0xbe156d2c	-0.14592427
67	0x3c513636	0.012769273
68	0xbd443172	-0.047898717
69	0xbd751450	-0.059833825
70	0xbe98656f	-0.29764888
71	0xbee0ecfe	-0.4393081
72	0x3df0dec0	0.11761236
73	0xbe57bf34	-0.21069032
74	0x3cf848a2	0.030308072
75	0x3ecbc6f9	0.39800242
76	0x3ecba3d9	0.39773443
77	0xbef8c9d5	-0.48591486
78	0x3e03032a	0.12794176
79	0xbeab7981	-0.33491138
80	0xbd945cba	-0.07244249
81	0xbdf9b3b9	-0.121924825
82	0x3dd44872	0.1036538
83	0xbe15a2c7	-0.14612876
84	0x3f42a8d0	0.7603884
85	0xbeace702	-0.33769995
86	0xbe9f3d32	-0.31101376
87	0xbe6d63f7	-0.23182665
88	0xbe2fefbd	-0.17181297
89	0xbe4a1f35	-0.19738467
90	0x3e8e44ca	0.27786857
91	0x3e1bb74b	0.1520664
92	0xbdad65d0	-0.08466685
93	0xbc886039	-0.016647445
94	0xbe1089c1	-0.14115049
95	0xbde290a2	-0.11062743
96	0x3e7c87db	0.246612
97	0xbe1538ee	-0.14572498
98	0xbebd135e	-0.36928838
99	0xbdbe0c2e	-0.09279667
100	0xbec77edc	-0.38963974
101	0xbd90db4c	-0.070730776
102	0xbe61979d	-0.22030492
103	0x3ed390d9	0.41321447
104	0xbe891ee2	-0.26781374
105	0x3e51e6ff	0.20498274
106	0x3ebd0181	0.3691521
107	0x3f23209a	0.6372162
108	0x3d2837da	0.04106889
109	0x3f00e244	0.50345254
110	0xbe8d4437	-0.27591106
111	0xbec5d612	-0.38639885
112	0xbe4a448b	-0.1975271
113	0xbeb5ec25	-0.35531726
114	0x3e2a05e6	0.16603813
115	0xbde18cae	-0.11013161
116	0x3e9199ca	0.28437644
117	0x3e66c3c6	0.22535619
118	0xbe188f95	-0.14898522
119	0x3dc17028	0.0944522
120	0xbec11fa4	-0.37719452
121	0x3eb07ac3	0.3446866
122	0x3ed3f8f8	0.41400886
123	0x3ea6fa73	0.32612953
124	0x3da639e0	0.081165075
125	0xbe391fc9	-0.18078531
126	0xbd74386b	-0.059624117
127	0x3ed27d5f	0.41111276
128	0x3e7c5cb6	0.24644741
129	0x3da361ef	0.07977664
130	0x3f411ec4	0.7543757
131	0x3e017074	0.12640554
132	0xbed98f5b	-0.42492184
133	0xbed38fc5	-0.41320625
134	0x3e132801	0.14370729
135	0xbf23b8ba	-0.63953745
136	0x3de5e48d	0.11225233
137	0xbecedc9c	-0.40402687
138	0xbed03969	-0.406688
139	0xbde55c98	-0.111993015
140	0xbd993e76	-0.074826166
141	0xbeb5fa54	-0.35542548
142	0x3e659146	0.22418699
143	0x3e82803f	0.2548847
144	0x3efc3553	0.49259433
145	0xbeb0c9fd	-0.34529105
146	0x3f07488a	0.5284506
147	0xbef1b74b	-0.47210154
148	0x3efc1237	0.49232647
149	0x3e0593ba	0.13044634
150	0xbecb9c6b	-0.39767775
151	0xbe8a2444	-0.26980793
152	0xbee89ad2	-0.4543062
153	0x3edeb02a	0.43493778
154	0x3ef118ef	0.47089335
155	0x3ef0d13b	0.4703463
156	0x3ed9c94d	0.42536393
157	0x3eb7481d	0.35797206
158	0x3e642f86	0.22283754
159	0x3e7ade0e	0.2449877
160	0x3d17b596	0.03703841
161	0x3f0f37c2	0.55944455
162	0x3eb7d601	0.3590546
163	0xbd3c7637	-0.046011176
164	0xbbb09d75	-0.005389864
165	0x3d85ce6d	0.06533513
166	0xbe934a55	-0.28767648
167	0x3e9fff04	0.3124925
168	0xbec25af3	-0.37960014
169	0x3e3119a4	0.17294937
170	0x3edb6391	0.428494
171	0x3e36efd7	0.17864929
172	0xbea2a1f8	-0.31764197
173	0xbe94aec2	-0.2903958
174	0x3c636523	0.013879093
175	0x3ec80330	0.39064932
176	0x3db4c579	0.088267274
177	0xbe5c1bf2	-0.21495035
178	0xbeabb497	-0.33536217
179	0x3d85d289	0.06534297
180	0x3e657400	0.22407532
181	0x3e8691fa	0.26283246
182	0xbba1052e	-0.0049139475
183	0x3dee3d1b	0.11632749
184	0x3e1ed7e2	0.1551204
185	0x3dfe41d6	0.12414901
186	0xbed3f043	-0.41394243
187	0xbe8e4589	-0.27787426
188	0x3e104aa1	0.14090969
189	0x3cc4996c	0.023998939
190	0xbe7d2183	-0.24719815
191	0xbe193add	-0.14963861
192	0xbe379e47	-0.17931472
193	0xbeac756b	-0.33683333
194	0x3e53cff9	0.20684804
195	0x3e117323	0.14204077
196	0xbe54aa7c	-0.2076816
197	0xbee833b3	-0.45351943
198	0xbeaadd65	-0.33372036
199	0x3e8bc2d9	0.27297094
200	0x3d81c5fe	0.06336592
201	0xbe62212d	-0.22082968
202	0xbd5f6c3e	-0.054546587
203	0xbdbc6116	-0.09198205
204	0xbe29466d	-0.16530772
205	0x3ea3078a	0.3184169
206	0xbda42faa	-0.08016904
207	0xbe23a554	-0.15981036
208	0x3dc86690	0.09785187
209	0xbe6c6652	-0.23085907
210	0x3ea62dfa	0.32456952
211	0xbc679f8e	-0.014137162
212	0xbd15c6f4	-0.03656669
213	0x3e63d758	0.22250116
214	0xbba73395	-0.0051025846
215	0xbecf16c9	-0.4044707
216	0xbdea6d2f	-0.11446606
217	0x3f127d0c	0.57222056
218	0x3e89f187	0.26942083
219	0xbd5afbeb	-0.053462904
220	0xbeadee7e	-0.33971018
221	0x3d62e383	0.055392753
222	0x3c477603	0.012174132
223	0xbea8173e	-0.32830232
224	0x3f343ad6	0.70402277
225	0x3e182c27	0.14860593
226	0x3f106e9a	0.56418765
227	0xbe9d7f13	-0.30761012
228	0xbe225374	-0.15852147
229	0xbea79ac9	-0.3273528
230	0x3daa0885	0.08302406
231	0x3ec5c627	0.3862774
232	0xbd86845f	-0.065682165
233	0xbe7c7f0f	-0.24657844
234	0xbcf42622	-0.02980334
235	0x3f16188a	0.58631194
236	0x3ea43a3c	0.3207568
237	0xbf0a038b	-0.53911656
238	0xbe38f212	-0.18061092
239	0xbd4868c7	-0.04892805
240	0xbe5e2cf3	-0.21696834
241	0xbef32528	-0.47489285
242	0x3e7a216b	0.2442681
243	0xbe863d82	-0.26218802
244	0x3e44e7d8	0.19229066
245	0xbe004d19	-0.1252941
246	0x3e443c2d	0.1916358
247	0xbd5343d3	-0.051578354
248	0xbe2fddec	-0.171745
249	0x3c8f7d43	0.017515784
250	0x3ea48d22	0.32138926
251	0xbe005625	-0.12532862
252	0xbe7efa2c	-0.2490012
253	0x3d4fd24e	0.05073767
254	0x3e5fe072	0.21862963
255	0x3e7f4112	0.24927166

fc_model.4.bias f4 [10]
0	0x3db5fd60	0.08886218
1	0x3d3755c2	0.04475952
2	0x3d2a26ce	0.041540913
3	0x3d5ba9b9	0.053628657
4	0xbd35c036	-0.04437276
5	0xbd056a67	-0.032572176
6	0xbe456b6f	-0.19279264
7	0xbd501de2	-0.05080975
8	0xbcf2128f	-0.029549865
9	0xbdaf55b4	-0.085612684
