ComputerVision/CNN/checkpoints/LeNetDpLast.pt (torch, 251703 bytes, 10 tensors)

cnn_model.1.weight f4 [6, 3, 5, 5]
000000 1b 81 22 bb 46 95 42 3d e5 ac 15 bd 8c e6 52 bd
       -0.002479619 0.04750564 -0.03654184 -0.051489398
000010 87 72 49 bd 3a 6c 30 bd f2 ff 98 3d 9b 39 a4 3c
       -0.049181487 -0.043071963 0.07470693 0.020047
000020 b1 c1 aa bd 3a a4 98 bd 85 28 c5 bc bb 79 20 bd
       -0.08337725 -0.07453199 -0.024067173 -0.03917859
000030 52 35 8b bd 47 fb da bc 07 8b ae bc b6 4c 59 3d
       -0.067972794 -0.026731146 -0.021306528 0.053051673
000040 51 f9 1a bd 05 21 05 3d af 83 d4 bd 36 bb 3b bd
       -0.037835423 0.032502193 -0.10376679 -0.045832835
000050 60 0a 9e 3d 7e 56 00 3d 26 e5 f8 3c 9a 0b 7d bd
       0.077168226 0.031332485 0.030382704 -0.061778642
000060 dd 38 e8 bb 45 62 35 3d 0d 12 ba 3d 92 ae ae 3c
       -0.0070868568 0.04428317 0.09085474 0.021323476
000070 ba df 0b 3d bf 86 66 3d a6 3b 01 3d d0 92 2e bd
       0.03414891 0.056280848 0.031551026 -0.04262048
000080 51 69 73 3c ce b6 c4 bc b0 8d 08 3c 9f 96 36 3d
       0.014856652 -0.02401295 0.008334562 0.044577237
000090 d7 51 46 3d 52 c2 06 bd a2 67 3b 3d 83 97 1f bb
       0.048417892 -0.032900162 0.04575313 -0.0024351783
0000a0 c1 66 95 bc c7 29 8c 3d 35 f4 24 bd 41 ce 2e bd
       -0.018237473 0.06843906 -0.040271956 -0.042677168
0000b0 16 34 c8 3c 2f 11 c1 b9 da 43 43 3d ec db b7 3d
       0.024438899 -0.0003682463 0.04767213 0.08977494
0000c0 46 65 bb bc da 0a bb ba f7 28 ec 3d 16 6a 78 3d
       -0.02287544 -0.0014270202 0.11531251 0.060648046
0000d0 b4 7e dd 3d 7c 40 d1 3d 90 85 bd 3d df b4 59 3d
       0.10815182 0.102173775 0.09253991 0.053151008
0000e0 4b 9c 6b bd 87 81 b0 3b 76 9a d6 bc ce f2 2e b9
       -0.0575221 0.0053865346 -0.0261967 -0.00016684385
0000f0 78 56 0c bd 5a de 25 3d 8d 90 b6 3b 2e 4d a2 bc
       -0.03426215 0.040495254 0.005571431 -0.019812193
000100 61 e1 8c 3b 9b b1 72 bc 76 c5 91 bc b3 01 16 bd
       0.004299328 -0.014812852 -0.017794352 -0.036622714
000110 8a b5 3b 3d ba 33 02 bc 6c 44 ef bc e7 c8 05 3d
       0.045827426 -0.007946903 -0.02920743 0.0326623
000120 e5 79 83 3c 58 7f 52 3c a1 63 1d bd da ba 2b 3d
       0.016049335 0.012847744 -0.03842509 0.041926242
000130 6b 49 20 3c 2b 1f cb 3c d3 54 9e bd d9 ea 02 3c
       0.009783129 0.024795135 -0.07731023 0.007990562
000140 80 a2 06 3e d2 7c 7e 3d 93 54 8e 3d bb 98 86 bd
       0.13147926 0.062130757 0.06949725 -0.065721
000150 5d e8 71 bd 20 23 02 3e 79 95 ed 3d d0 55 08 bd
       -0.05905949 0.12708712 0.11600775 -0.033284962
000160 4b 92 bb bd f7 01 16 bd 49 c0 8e 3d aa 76 73 ba
       -0.091587625 -0.036622968 0.06970269 -0.00092873967
000170 1c 06 10 bd 34 e7 9b bd 5e 4d 69 bc df 76 dc 3d
       -0.035162076 -0.07612458 -0.014239637 0.1076486
000180 c7 2c 67 3b e9 15 d1 ba 21 4c d8 bd 53 7c a0 bc
       0.0035274492 -0.0015951964 -0.105613954 -0.019590532
000190 a0 3c c7 3d 09 68 c6 3c 3e 30 c6 bd 5b a2 76 bd
       0.0972836 0.02421953 -0.0967717 -0.060213428
0001a0 2d 38 28 be 88 49 86 3c 72 65 8d 3d ea eb 3c bd
       -0.1642768 0.016392484 0.06904115 -0.046123423
0001b0 7f 7d 14 be 1b 27 16 be 22 77 ec 3d 78 5a 73 3c
       -0.14500998 -0.14663355 0.1154616 0.014853112
0001c0 e1 1a a1 bd 56 ee 0e be 12 d7 13 be 4c 86 dc 3d
       -0.07866455 -0.13958105 -0.14437512 0.107678026
0001d0 d6 46 02 3d 8a 5a 6e bc 70 0e f8 bd b3 81 7d bc
       0.031805836 -0.014547953 -0.12112129 -0.015472817
0001e0 12 ae 6b 3e 66 2a 67 bc a2 db 5a 3d b0 00 16 bd
       0.23015621 -0.01410923 0.053432114 -0.03662175
0001f0 74 17 e9 bc a4 28 8a 3d 1f d7 75 3c 06 8d 50 3d
       -0.028453566 0.06746033 0.015004902 0.05091574
000200 55 d8 15 bd 9d e1 59 bd 69 69 f5 3d 9f 5a ca 3d
       -0.036583263 -0.053193677 0.11982996 0.09880566
000210 d9 f1 f6 bc 6e f2 da bd 5b 72 bb bc 6c c7 f4 3d
       -0.030144619 -0.10690771 -0.022881677 0.11952099
000220 39 49 05 3c ba fb 0d 3d 71 42 ed bd 9f 9c 55 bd
       0.008135133 0.034663893 -0.11584938 -0.05215132
000230 a7 b5 19 3e 5a d2 1b 3c 93 49 cd bc 07 9a 8d bd
       0.15010701 0.009510601 -0.025059497 -0.06914144
000240 ba 4d ec bd 59 01 3b 3e 8b cf 12 3d 82 e1 82 bd
       -0.11538263 0.18262233 0.03584246 -0.063906685
000250 83 47 a7 bd b0 ef f2 bc 32 89 03 be 12 32 bb bd
       -0.08167937 -0.029655308 -0.12845305 -0.091404095
000260 18 8c 2b bd 6a 1e 02 be c4 4d e3 bd 16 66 70 bd
       -0.04188165 -0.12706915 -0.11098817 -0.058691107
000270 4b 24 a4 bd df 92 76 bc a7 85 51 3d 5f 9f cc 3c
       -0.08014735 -0.015049665 0.05115285 0.024978338
000280 b9 96 5d 3c 95 9f 21 3e 3a b9 27 3e 1e 07 e4 3d
       0.013524705 0.15783532 0.16379252 0.1113417
000290 bd ad b7 3d 35 ff 30 3e 75 8e 4d 3e bc 17 17 3e
       0.08968685 0.17284854 0.20073874 0.14755148
0002a0 8f 0d 40 3e 56 fa 3a 3e 72 37 a0 3d 25 f0 1f 3e
       0.18755172 0.18259558 0.07823075 0.15618952
0002b0 4f c7 78 3d bf 57 99 3d 68 f6 3c 3e cf 5f 53 3d
       0.06073695 0.07487439 0.18453372 0.051605042
0002c0 ed c8 0b 3d 90 e4 c5 bc 2f 31 b0 3d f9 d5 61 bc
       0.034127165 -0.024156839 0.08603131 -0.013783925
0002d0 79 e0 bf 3d 1d 98 08 bd bf 14 52 bd 39 db 80 bd
       0.09368987 -0.03334819 -0.051289316 -0.062918134
0002e0 b6 8e 85 bb 8f 68 b0 3d ad e4 15 bd 79 86 b8 3d
       -0.0040758504 0.08613693 -0.036595035 0.090100236
0002f0 78 36 72 3c 3d 96 4c bd f9 48 73 3c c8 e9 1e bd
       0.014783494 -0.049947966 0.014848941 -0.03879717
000300 a9 80 96 bc a9 47 80 bc d3 1a c8 bd 32 74 65 bd
       -0.018371897 -0.01565917 -0.09770741 -0.056019016
000310 4e a4 b8 3c 30 43 82 bc 7d ee cc bd 10 81 13 be
       0.022539284 -0.015901178 -0.100064255 -0.14404702
000320 fb 45 52 3c ba 86 2a 3d e9 7f c8 3d 41 51 21 bd
       0.012834067 0.04163239 0.09790022 -0.03938413
000330 10 b6 5d 3c db 13 9b bc 5d a1 1a 3d 4f 66 29 3d
       0.013532177 -0.018930366 0.037751544 0.041357335
000340 21 5b 11 bd c6 95 f0 3c 4f 77 02 3e 13 77 6f 3c
       -0.035487298 0.029368293 0.12740825 0.014615792
000350 b9 bc 00 be f2 8d fb bc 7e 5e e1 bd bc c9 89 bd
       -0.12571992 -0.030707333 -0.11004351 -0.06727931
000360 42 ac 38 bd a2 6c b8 bd dd 73 88 39 96 c1 a5 bc
       -0.045086153 -0.09005095 0.00026026266 -0.02023391
000370 33 ec af 3c cb c9 03 be 7d 3a 3a be e8 94 9a bc
       0.021474933 -0.12869947 -0.18186374 -0.018869832
000380 18 f5 54 be 91 cb dc 3d 11 8b e7 3c 1a af 95 3c
       -0.20796621 0.10781015 0.028264554 0.018271971
000390 be ab d9 bd 4e 7a 39 bc e9 ae 40 3e 94 c3 e5 3d
       -0.1062846 -0.011320664 0.18816723 0.11218944
0003a0 f8 73 f7 3d 45 71 5f bd ed 9a 91 bc 12 28 70 3e
       0.12082666 -0.05455138 -0.01777407 0.23452786
0003b0 bc 36 8f 3d 00 f6 00 3e b3 ff c4 3d dd 1e cf 3a
       0.06992862 0.12593842 0.09619083 0.0015802045
0003c0 b3 75 39 3d ee 57 26 3e 69 a6 48 bd 00 30 34 3d
       0.045278262 0.1624448 -0.048986826 0.04399109
0003d0 54 8e 9c bd 1c 38 4e 3c 2b 81 37 bd 75 5e c8 bd
       -0.076443344 0.01258662 -0.04480092 -0.09783641
0003e0 42 03 31 bd 88 aa b8 bd ce 89 cd 3d 84 1a a3 bd
       -0.043215998 -0.09016901 0.1003605 -0.07964042
0003f0 3f 9f b6 bc 02 36 d1 3d 86 c3 01 3e 72 3b b9 bc
       -0.022292731 0.10215379 0.12672243 -0.022611354

cnn_model.1.bias f4 [6]
000000 39 d0 31 be 7b 1c 6e bf 5f 80 a6 3e f6 ec e8 bd
       -0.17364587 -0.9301221 0.32519814 -0.11373322
000010 a9 97 4f bf a2 72 46 be
       -0.8109079 -0.19379666

cnn_model.5.weight f4 [16, 6, 5, 5]
000000 44 46 8c bd 15 b5 14 be f2 47 3c bd b4 fb dc bd
       -0.068493396 -0.14522202 -0.04596705 -0.10790196
000010 00 d9 51 bd b1 d8 31 bd f6 d9 65 bd 53 5e c7 3b
       -0.051232338 -0.043419544 -0.056116067 0.0060842424
000020 97 51 d7 3a 2e 58 35 bc 8f 0c 57 3d 70 ad 21 bd
       0.0016427514 -0.011068387 0.05250221 -0.039472044
000030 13 24 40 bc ac 1e 1d bd c6 0a b6 bb c9 e6 9b 3c
       -0.011727351 -0.03835933 -0.0055554835 0.019030945
000040 c5 b0 e8 3a 60 d6 7d bc 87 9d 16 3d 24 a4 00 bc
       0.0017752877 -0.0154930055 0.036771324 -0.007851634
000050 75 e4 81 3c 1f 76 19 bd 07 e1 ab bd 79 99 9f bd
       0.015856007 -0.037466165 -0.0839253 -0.077929445
000060 4c c0 47 3d e3 7f 1a be 0c 36 bd bd 62 76 d6 bd
       0.048767373 -0.15087847 -0.09238824 -0.104717985
000070 66 10 93 bd 9d 64 49 3d 98 d1 64 bc c8 bc 0f bd
       -0.07180862 0.049168218 -0.013965987 -0.035092145
000080 75 5c 3f bc dd ef 85 3c 1f 24 7b 3d 8f f8 23 bd
       -0.011679758 0.016349727 0.061313745 -0.040031966
000090 77 56 0e bd 35 f7 70 bd f7 90 9a bb 5a 47 06 3e
       -0.034750428 -0.058829505 -0.004716988 0.13113156
0000a0 36 5b 32 3c 48 8c 53 bc fd 19 43 3d 01 40 92 3c
       0.010886004 -0.012911864 0.047632206 0.017852785
0000b0 ca 78 9b 3d 50 e9 17 3d 09 51 17 bc b3 28 79 bb
       0.07591398 0.03708774 -0.009235629 -0.0038018643
0000c0 5b d7 a5 3d 0e d7 05 3e a6 d2 f1 3d d1 ed b8 3d
       0.080977164 0.13070318 0.11807756 0.09029735
0000d0 24 e1 33 3d b3 8f 53 3d 54 75 1f 3d f1 a5 06 3e
       0.043915883 0.051650714 0.038930252 0.13149239
0000e0 e7 ee 3e 3d 38 d1 89 3d a8 e9 ac 3c e9 46 ad bc
       0.046614554 0.067293584 0.02110751 -0.021151977
0000f0 82 f6 58 3d 14 5f 6b 3d 5a eb 4d 3d 63 3e f6 3c
       0.052969463 0.05746372 0.050273277 0.030059045
000100 78 db 2f bd 57 0d 8c 3d 0e df a0 3d 2b 24 94 3d
       -0.04293391 0.06838482 0.07855044 0.07233461
000110 2f 25 19 bc ee e0 b4 bd ab 26 e0 3c 64 b1 a0 bd
       -0.009347244 -0.088319644 0.027362188 -0.078463346
000120 5f 03 af bd d1 40 31 bd f6 b7 51 be c1 6f a2 3d
       -0.08545565 -0.043274704 -0.20480332 0.079314716
000130 99 e4 cf 3c bf 74 fe 3c f9 d8 3d 3d 28 fc 9c 3d
       0.025377559 0.031061528 0.0463495 0.076652825
000140 5d 99 02 3c 12 74 f4 3c 75 f8 75 bc 16 80 2e bc
       0.007971135 0.029840503 -0.01501285 -0.010650655
000150 da 4e 94 bc e8 59 77 bd ce 6a 44 bd c4 8a f8 bc
       -0.018104006 -0.060388476 -0.04795342 -0.030339606
000160 65 cc 9f 3c bc c2 aa bd 79 69 cc bd 71 b7 ef bc
       0.019506643 -0.08337924 -0.09981055 -0.029262276
000170 b4 8b b7 3b ba 1b 97 bd 4d 14 9b bd 6e bb 01 be
       0.0056013707 -0.07378335 -0.075722314 -0.12669155
000180 fb 0c 36 bd 13 f6 74 bd 9e 7b 2e bd 4d b9 25 be
       -0.044445973 -0.059804987 -0.04259836 -0.16183968
000190 52 09 35 bc cc 9a e5 bc d7 65 55 3d 3f c1 61 3c
       -0.011049585 -0.028027914 0.052099075 0.013778984
0001a0 2a 4e 1e 3d f5 79 df 3b 17 37 a2 3b 71 47 52 bc
       0.03864876 0.0068199583 0.004950415 -0.012834416
0001b0 c5 9a a3 3c 07 43 54 3d a5 38 7c bc 80 63 9c ba
       0.01997126 0.051821735 -0.0153943645 -0.0011931509
0001c0 97 be 6d 3d 86 f1 af bc 38 23 19 3d 88 7a 89 bc
       0.05804309 -0.021477472 0.037387103 -0.01678206
0001d0 a0 e5 85 3d 6b e7 76 3d 55 7c 46 3c bc 03 c3 3c
       0.06537938 0.06027929 0.012114604 0.023805492
0001e0 1a 54 7f bd f3 cc 7e bc ff e7 2f ba 2d 0e 06 3e
       -0.062336065 -0.015551793 -0.00067102903 0.13091345
0001f0 f5 e0 f5 3d 0d 57 2c bd 63 99 d4 3c 5a d5 fd 3c
       0.12005798 -0.042075206 0.025952047 0.030985523
000200 65 b1 89 3c 70 0d 69 3d fc df 6a bd d9 d2 ce bc
       0.016808221 0.05689758 -0.057342514 -0.025247024
000210 8c 82 f0 3a 25 15 3c 3d 50 56 db 3c 8f 25 57 bd
       0.0018349453 0.045918602 0.026774555 -0.052526053
000220 e5 a3 2c bd 43 73 bd 3c b2 1e 43 3c 0c cb 7a bc
       -0.04214849 0.02312625 0.011909174 -0.015307199
000230 fd 47 4d bd 90 15 89 3d c0 8c 9e 3c 40 a3 36 3d
       -0.05011748 0.06693566 0.019354224 0.04458928
000240 f8 c1 34 3c a9 67 4e be 3b a9 03 be f7 74 31 bd
       0.011032574 -0.2015673 -0.12857525 -0.043324437
000250 78 da 1f be e3 36 2a be 94 eb 27 be 29 74 02 be
       -0.15610683 -0.166225 -0.1639846 -0.12739624
000260 7e 1b 07 be 98 82 b1 bd 46 2c 66 bd 20 78 f8 3a
       -0.13194081 -0.08667487 -0.056194566 0.0018956698
000270 42 a1 4d bc 44 1c a9 bb 24 6c ab 3d b4 37 e3 3d
       -0.012550654 -0.00516084 0.083702356 0.11094609
000280 db 1b dc 3c f2 79 cf bc a7 86 d2 3c 3b cd 31 3d
       0.026868751 -0.025326703 0.025698973 0.043408614
000290 1f e4 5a bc bd 6a b0 3c 9f 71 ee 3c 24 41 0b 3d
       -0.013360052 0.021535272 0.029106913 0.03399767
0002a0 14 06 67 3d b6 2b 5e 3d d2 ec 04 3c fc 81 0e bd
       0.05640228 0.054240905 0.008113103 -0.03479193
0002b0 19 0e b6 3c 98 ac a5 bc f3 6f 8b 3c 81 ab bf 3c
       0.02222352 -0.0202239 0.017021155 0.02339721
0002c0 d2 83 1d 3d 87 92 12 3d 8f 43 9b 3c f6 50 07 3d
       0.03845579 0.03578427 0.018953113 0.033036195
0002d0 db 42 5e bc 63 06 bd 3c 23 2f 94 3c 6b 86 07 bd
       -0.013565744 0.023074334 0.018088883 -0.033087175
0002e0 da c6 1c bd 49 88 55 bd bf 0b 22 bd 0c 6b bf bc
       -0.038275577 -0.052131925 -0.039561983 -0.023366474
0002f0 be 34 e8 3c 6d 6e 34 bd 92 6e 31 bd c8 ca 05 bb
       0.028345462 -0.044050623 -0.04331834 -0.0020415056
000300 ac f1 f7 bc 54 fd 7f bd 72 41 e2 bc e6 54 3d 3c
       -0.030266605 -0.062497452 -0.027619097 0.011555886
000310 73 ae 33 bc c0 15 5b bd e5 77 78 bc cb ed 48 3d
       -0.010966885 -0.05348754 -0.015165304 0.049054902
000320 b1 0b 40 3d 16 86 9c bc 69 1f 88 3b 7d a6 a8 bc
       0.04688615 -0.019106906 0.004154135 -0.0205872
000330 1f 7b 87 bd eb e8 9c 3d d1 b8 02 3d 78 f3 3b bc
       -0.0661528 0.07661613 0.031914536 -0.011471622
000340 8a 52 38 bd 8c d5 ac bc 39 6b c2 3d a3 f8 34 3d
       -0.04500059 -0.02109792 0.09493107 0.04418243
000350 99 e9 ab 3c 13 a0 4a bd 6f 03 18 bd a0 e9 ce 3d
       0.020985411 -0.049469065 -0.03711265 0.10103154
000360 6a 6a b5 bb 53 8f 4c 3b 08 88 8e bc 7b b8 16 3c
       -0.005536367 0.0031213358 -0.01739885 0.009199257
000370 e2 78 da 3d b6 e0 c2 3d 26 a6 b8 3d 6a bf cf 3c
       0.10667588 0.095155165 0.09016065 0.025359828
000380 d9 86 e7 3d 63 ef b6 3d 41 6d 8b 3d 9e f5 42 3d
       0.11305017 0.08932378 0.06807948 0.04759752
000390 84 77 1d bd 03 d8 5a bd 7c c0 8d 3c 22 92 24 bd
       -0.038444057 -0.05342866 0.017303698 -0.040178426
0003a0 44 cc 82 bd 0f a8 9d bd 30 6a 9f bd a2 b0 10 3b
       -0.06386617 -0.0769807 -0.077839255 0.0022077938
0003b0 3b fb f9 bc 77 f0 6f bd 2d c0 a9 3b 68 c5 34 bd
       -0.030515304 -0.058578935 0.00518038 -0.044133574
0003c0 61 9d c8 bb 11 30 41 bc 1b ff 18 3d 72 cc a7 3b
       -0.0061222767 -0.011791245 0.037352663 0.0051208073
0003d0 58 07 1f bd c3 b4 07 3e 05 cd 84 3d e9 f3 95 3d
       -0.038825363 0.13252549 0.06484417 0.07321913
0003e0 9d 1c df 3d 10 68 23 3e f8 24 ba bd 66 35 c3 bc
       0.108941294 0.15957665 -0.090890825 -0.023829173
0003f0 58 ab e7 bc f9 e4 86 3d 62 80 80 3c 04 76 82 bc
       -0.028279945 0.06586642 0.015686218 -0.015925415

cnn_model.5.bias f4 [16]
000000 3b 12 f9 bd 20 70 ba be d6 8b ab 3e 22 e8 b9 bd
       -0.1216168 -0.3641367 0.33505124 -0.09077479
000010 9f 6c 78 be e3 30 ed 3e 60 37 a9 3d 5b 9d 96 3d
       -0.24260186 0.4632636 0.08262515 0.07354232
000020 f7 5d 2b 3e 54 f5 83 3d 12 2a da be 26 3a 2b 3e
       0.16735063 0.06443277 -0.42610222 0.167214
000030 0a 49 6a 3e d8 d6 a1 be 9c 95 28 bf 0f 21 51 3d
       0.22879425 -0.31609225 -0.65853286 0.051056918

fc_model.0.weight f4 [120, 400]
000000 5d e0 de 3b 33 17 1a 3d 12 75 31 bd 96 f7 c0 bc
       0.0068016485 0.03761978 -0.043324538 -0.023555558
000010 13 16 cd 3c 1d 5c c7 bc d9 ee 4d 3a 88 36 81 3b
       0.02503494 -0.024335915 0.00078557205 0.003943268
000020 47 82 19 3c b0 ca 1c bd 14 dc 97 bc 2d 29 9e bc
       0.009369439 -0.038279235 -0.018537559 -0.019306744
000030 cb 46 a7 3c c8 6f 03 bd 96 1f 26 bd 3c fe 24 bd
       0.020419499 -0.032089025 -0.040557466 -0.04028152
000040 3f e5 13 bd 96 21 fb 3c 22 10 7a 3a ed fa 2e bd
       -0.036107298 0.030655663 0.0009539147 -0.04271977
000050 68 68 8a 3c 94 d1 bf 3c 2c ee 4d 3b f9 18 72 3c
       0.016895488 0.023415364 0.003142248 0.014776462
000060 03 e9 5c 3c 24 24 ea 3c 43 a4 07 3d 78 76 16 3d
       0.013483289 0.028581686 0.033115637 0.036734074
000070 c1 40 87 3c 56 01 0e 3c 97 32 17 bc a3 30 1d 3d
       0.01651037 0.008667311 -0.00922837 0.03837646
000080 2e cc 9f bc 51 5a 57 bc a3 5f 43 ba d2 1d 45 3d
       -0.01950654 -0.013144092 -0.00074529106 0.048124142
000090 1c 63 7e 3d d9 18 ad 3c db 4a 20 3d c1 78 e8 3c
       0.062106237 0.021130012 0.039133888 0.028377892
0000a0 b1 cf b6 3c 0f f6 20 3d 18 64 13 3d b0 b6 17 3d
       0.022315832 0.03929716 0.03598413 0.03703946
0000b0 df 97 04 3d 8f 89 c3 3b d7 66 0b 3d 80 83 58 3d
       0.032371398 0.005967326 0.034033623 0.052859783
0000c0 3f f5 69 3d 0c 75 9d 3b 46 33 47 bd 6b fa 16 bd
       0.05711865 0.004805213 -0.048632883 -0.03685991
0000d0 f5 b4 04 bd f8 bc 19 bd 64 b9 e6 bb 5f 67 cc bc
       -0.032399137 -0.03753373 -0.0070411433 -0.024951635
0000e0 b1 57 30 bb 54 b8 0b bd ef 6b 4a bd cd 80 dd 3b
       -0.0026907737 -0.034111336 -0.04941934 0.006759739
0000f0 82 ec 78 bc 60 86 9e bc f5 a5 2a 3c 8a fa d6 ba
       -0.015193107 -0.019351184 0.010415544 -0.0016401571
000100 13 a8 fc bb f2 b6 4b bd f2 fb f1 bc 49 7f a0 ba
       -0.0077104657 -0.049735017 -0.029539082 -0.0012244965
000110 e8 af 1a bd 4b 27 8f bd 26 38 42 bd 2a 9c 98 bc
       -0.037765414 -0.069899164 -0.04741683 -0.018629152
000120 3f 50 26 3c 24 cc 2d bd d6 47 93 bd c0 bc 23 3c
       0.010150968 -0.04243101 -0.07191436 0.009993732
000130 9f 4f 37 ba d9 d8 a2 3a fb 33 e2 b9 c5 5f 21 bc
       -0.00069927605 0.0012424245 -0.00043144808 -0.009849493
000140 8f 2e 9b bc 2a de 3c bb 1a 04 0e bd 19 96 cf 3c
       -0.0189431 -0.0028818944 -0.03467188 0.025340127
000150 31 ce 37 3d 72 a5 8a bd 22 2f 46 bc 2e f8 05 3b
       0.044874374 -0.067698374 -0.012096198 0.0020442116
000160 03 7b 20 bc 54 fe 26 3c 79 c2 09 bd 4a 32 b4 bc
       -0.009794953 0.0101924725 -0.03363273 -0.021996636
000170 12 e2 c2 bb 62 60 22 bc e4 9e 27 bc b7 c0 1b bd
       -0.00594736 -0.009910675 -0.010230754 -0.038025584
000180 7c 69 ed bb 08 eb a7 bb ee 58 4a 3c b0 8f 0d bd
       -0.0072452407 -0.0051244535 0.012350304 -0.03456086
000190 58 77 c2 bc c2 b8 ce 3b 47 54 07 3d 32 8b 24 3b
       -0.023738548 0.006308646 0.033039358 0.002510738
0001a0 67 a6 8a bd 5e ab e5 bc b2 b0 d6 bc c1 6a 84 bc
       -0.0677002 -0.028035816 -0.026207302 -0.016164185
0001b0 a7 24 f7 bc 98 41 73 3b 74 d3 d1 3c 0b 26 ee 3b
       -0.030168844 0.0037117954 0.025613524 0.0072677187
0001c0 ce 40 95 3c 57 6f bd 3b b9 f5 a6 3c 0d b1 81 3d
       0.018219378 0.005781095 0.020380842 0.06332598
0001d0 ec f2 16 bc c8 5a d4 3c 19 fa 17 3c 4d 2f 95 bb
       -0.0092131905 0.025922194 0.0092759365 -0.004552758
0001e0 cd 49 fd 3c 70 b6 19 3c d1 c3 02 3d 69 d7 15 bc
       0.03091898 0.009381875 0.031925026 -0.009145596
0001f0 f3 1d 00 3d 12 39 17 3d 39 da 89 bc ab bd 56 3c
       0.03127856 0.03691966 -0.01682769 0.013106744
000200 d6 9f 32 3c ee 58 be 3b 5a 82 36 bd 98 f5 40 bd
       0.010902366 0.005808941 -0.044557907 -0.047109216
000210 66 00 65 bd fc 51 51 bc ef 3b 81 3a 09 0d ea bc
       -0.055908583 -0.012775894 0.000985978 -0.028570669
000220 79 68 24 3c ca 35 4b 3c e1 2d 89 bc 61 60 6c 3c
       0.010034674 0.012402961 -0.01674551 0.014427275
000230 72 3f ae bc 34 bf 08 bd ea cd c8 bc f7 e1 21 bc
       -0.021270487 -0.03338547 -0.02451225 -0.009880534
000240 41 d8 c7 bc ac 85 8c bc 2f fe 58 bc 8f 99 54 3c
       -0.02439511 -0.017153583 -0.013244196 0.012976064
000250 25 c1 ca bc 6f 8f 92 bc 26 69 5c 3a eb 4c 50 3c
       -0.024750302 -0.01789066 0.00084080023 0.012713651
000260 09 d6 24 3c c2 db 86 3c 0b 88 3c 3d c5 07 0a 3d
       0.010060796 0.01646221 0.04602818 0.033698816
000270 cc 89 96 3c fc 77 5b 3b 07 07 50 3d f9 2e cf 3c
       0.018376254 0.0033488264 0.05078795 0.025290953
000280 ad 57 d2 3c 12 75 9f 3c e8 d9 5b 3c 1f b6 9d 3c
       0.025676573 0.019465003 0.013418652 0.019251881
000290 11 56 c4 3c 2b ae 2a 3d d6 8e 94 bb b7 eb a7 3c
       0.02396682 0.041670006 -0.004533629 0.02049814
0002a0 49 de 53 bb 02 f8 55 3d fe f8 7f 3d eb b3 a8 bc
       -0.0032328537 0.05223847 0.062493317 -0.020593604
0002b0 fd 88 7b 3c ff 9c 48 3d ed 70 25 3d c0 69 11 bd
       0.015352485 0.04897785 0.040390898 -0.03550124
0002c0 40 c6 ff bc 99 40 bf bc 6d 77 85 3c 26 d5 74 bd
       -0.031222463 -0.023346232 0.016292298 -0.059773587
0002d0 44 30 e4 bc 95 3d 3c bd e0 bf 01 bd e4 ff cf bc
       -0.027855046 -0.045957167 -0.031677127 -0.025390573
0002e0 21 6f 79 bd b2 ed 44 bd 1a 00 31 bd ea a7 72 3a
       -0.060896996 -0.048078246 -0.043212987 0.00092565885
0002f0 95 bf 6a bd cb a5 b5 bc 14 40 9e bc 9b a4 81 3b
       -0.057311613 -0.022173783 -0.019317664 0.00395639
000300 ca f4 a4 bc eb 9f fb bc 25 77 db bc 2f 94 b8 3b
       -0.020136256 -0.030715903 -0.026790211 0.0056328992
000310 95 d3 ba 3b 65 66 24 bd a9 db 05 bd 2e ad 1d bd
       0.005701492 -0.040136714 -0.032680187 -0.038495235
000320 c5 0a 87 3b a9 f6 0a bd 8a de cf bc dc 3a 87 3c
       0.004121157 -0.03392664 -0.02537467 0.016507559
000330 66 0a 79 3c 55 c0 15 bc 9f 9f 7d bb 5f 17 30 3d
       0.015200233 -0.009140094 -0.0038699878 0.04299104
000340 9c 25 bf 3c 9d 35 fa bc 76 ec d9 bc cb 66 00 3c
       0.023333363 -0.030543143 -0.026602011 0.007837008
000350 ca f9 64 3c 93 c2 b2 bc e1 b1 c5 bc 98 2b 2c bd
       0.01397557 -0.021821296 -0.02413267 -0.04203376
000360 0c 8a 6d bc 96 51 aa bc c7 4a 13 bd 65 e4 bd bc
       -0.014498245 -0.020790856 -0.035959985 -0.023180196
000370 9c e9 a3 bd cf ad 6f bd 23 ef 83 bd 38 d2 83 bb
       -0.08003542 -0.058515366 -0.06442096 -0.0040228628
000380 76 f5 cf bd ba fa df bc 79 75 5a bc 65 f7 0e bd
       -0.1015424 -0.027341235 -0.013333672 -0.034903903
000390 36 20 66 bc eb 77 58 3c 38 8a 20 bd eb f1 56 3c
       -0.014045766 0.013212184 -0.039194316 0.013119201
0003a0 5c 89 be 3c fa f2 f0 bc e4 a9 4a bc 2b 0a 77 3a
       0.023258857 -0.029412735 -0.012369607 0.00094238174
0003b0 08 ea 8b 3c 00 86 08 bd 2c 4e 4b bd e7 35 b0 bc
       0.017079368 -0.033330917 -0.049635097 -0.021510078
0003c0 ad 1b fe bc ee 09 66 bc a2 a1 45 b9 39 d1 4d bd
       -0.031019056 -0.014040453 -0.00018847597 -0.05024836
0003d0 fd e3 84 bc 9c 27 02 bd b1 06 f2 bc c4 25 cb bc
       -0.016221995 -0.031776056 -0.029544206 -0.024798281
0003e0 dd 34 37 bb 40 f7 45 bd fd 41 97 bc f2 0d 2f ba
       -0.0027955093 -0.0483315 -0.018464083 -0.0006677798
0003f0 22 b3 07 bc c5 d9 e0 bb 4a 89 91 3c 89 12 2e bd
       -0.008282455 -0.0068618977 0.01776566 -0.042498145

fc_model.0.bias f4 [120]
000000 01 2e 32 be 50 a4 08 be 04 35 1e bd d2 da 27 3e
       -0.17400362 -0.1334393 -0.03862478 0.16392067
000010 31 92 1c be 20 4c 02 bd e2 70 91 bb be 2e 36 be
       -0.15290143 -0.03181088 -0.0044385055 -0.17791268
000020 9d a2 59 3d d0 82 f0 3d 92 c3 81 bd 53 b9 f6 3d
       0.053133596 0.117437005 -0.0633613 0.120470665
000030 77 1b 07 3e db af 75 3c f3 69 5a be 39 7b 51 3e
       0.13194071 0.0149955405 -0.21329479 0.20457162
000040 62 35 1a 3e 9d 41 54 3e b1 13 3d 3e ef 06 91 3e
       0.15059426 0.20728154 0.18464543 0.28325602
000050 ec c2 bb bd 09 17 0b be c3 31 c1 3d 7a a2 9d 3d
       -0.09168038 -0.13583006 0.094333194 0.076970056
000060 77 ae a8 bc 3a 14 eb bc 86 07 21 3e ea 52 9c 3e
       -0.020591004 -0.028696168 0.15725526 0.30532008
000070 a8 31 3d bd dd b3 2f be 52 fc 75 3d 72 ef de bd
       -0.046189934 -0.17158456 0.060055085 -0.10885514
000080 74 77 37 be 3d b9 38 3d f0 73 5a 3e 3b dc b3 3d
       -0.17916662 0.045098532 0.21333289 0.0878224
000090 9c f6 fe bd 4b c0 c1 bd c7 c9 77 3d 76 b7 85 be
       -0.12449381 -0.09460505 0.060495164 -0.26116532
0000a0 df 0d d3 3d de b6 1a 3d 5a f7 35 bd cf 1c 1d 3e
       0.1030538 0.037772052 -0.044425346 0.15343021
0000b0 b7 8f 82 be db c3 af be 10 5e dd bd 56 15 09 be
       -0.2550027 -0.34329113 -0.108089566 -0.13387045
0000c0 3a cb 77 be 38 ce 07 3e e1 c3 16 bc 35 e2 7d be
       -0.24198619 0.1326226 -0.009201975 -0.24793322
0000d0 9f e5 09 be 16 06 07 be a3 11 41 be e0 ce 5c bd
       -0.134665 -0.13185915 -0.18854384 -0.05390823
0000e0 c6 4a 2e 3e 18 b8 84 3e 15 d4 29 3e 40 b9 01 3e
       0.17020711 0.25921702 0.16584809 0.12668324
0000f0 5c b0 37 be 24 71 4f 3e 6d 38 79 be 29 70 12 3d
       -0.1793837 0.20258003 -0.24337931 0.035751496
000100 79 3e bc bd 58 a2 31 be 4e e2 57 be eb 26 28 3e
       -0.09191603 -0.17347085 -0.21082422 0.16421096
000110 e5 dd 19 3e 41 31 46 3e 9b ed 05 bd f7 c0 23 3e
       0.15026052 0.19354726 -0.0326973 0.15991579
000120 75 05 62 bc 9b 06 86 3e 0a c6 4c 3e a4 40 2e be
       -0.013795246 0.26176915 0.19997421 -0.17016846
000130 57 28 15 3e d0 c3 6d bd d1 d1 95 3e 0a 51 99 3e
       0.1456617 -0.05804807 0.2926164 0.2994464
000140 70 a6 0d bd de bd 3f bd c7 68 f8 3d 0c 51 6b 3e
       -0.034582555 -0.04681193 0.1212936 0.22980136
000150 97 4d 9b 3d 98 dc a7 bd 6d 10 05 be 25 e8 ab 3d
       0.075831585 -0.08196372 -0.12994547 0.083938874
000160 f0 48 2c bd 4c f6 14 3d a8 5f 16 bd 59 df 62 3e
       -0.042061746 0.0363677 -0.03671232 0.22155513
000170 df 6e 26 be 66 0d 6b bc 52 2a 91 3d 01 96 88 be
       -0.16253231 -0.014346456 0.0708815 -0.26676944
000180 65 eb 07 be 12 5f c0 3d dd a7 d4 3d a8 de e8 3d
       -0.1327339 0.09393133 0.1038358 0.11370593
000190 2f 3e f2 bd 7f b2 a3 bd df f5 17 3d 8b 0c 85 be
       -0.11828267 -0.0799303 0.037099715 -0.25986132
0001a0 b7 34 c3 bd 09 61 67 be b3 bb a6 bd b4 f6 3b 3e
       -0.09531539 -0.2259561 -0.081412695 0.18355829
0001b0 03 a7 07 3e e3 95 a3 be d4 44 9d be 77 48 0e 3e
       0.13247304 -0.31950292 -0.30716574 0.1389483
0001c0 9b 9e 01 be a8 21 04 3d 73 98 e7 bd e5 ea 3f 3e
       -0.1265816 0.03225866 -0.11308374 0.18741949
0001d0 6f b8 81 be 48 51 2d be 40 00 a5 bd cc dd a1 bd
       -0.25336024 -0.16925538 -0.08056688 -0.079036325

fc_model.3.weight f4 [84, 120]
000000 0d 87 be 3c 49 f9 c7 bb 6b ab 60 3d c0 75 d6 3d
       0.023257757 -0.006102715 0.054850977 0.10471678
000010 9d c2 84 bd 44 9b 2c 3d 09 2b f9 3b 17 3a 80 3c
       -0.06482432 0.04214026 0.007604007 0.0156527
000020 b2 78 42 3d fc 35 41 3e 26 44 5b bd 81 71 ad bd
       0.047478385 0.1886825 -0.05353179 -0.08468915
000030 32 8e 2a 3d f4 d6 0a bd 74 42 05 bd a2 76 60 bd
       0.041639514 -0.0338964 -0.032534078 -0.054800637
000040 79 d9 22 bd 64 de 99 bb d2 09 11 3d 6e 00 25 3b
       -0.03975818 -0.0046957005 0.035409756 0.0025177258
000050 ad 14 12 3c ff 55 49 bb b6 8c 2b bd 01 77 16 3c
       0.008916062 -0.0030721424 -0.04188224 0.009183646
000060 3a e7 10 be 4c ea 36 3b 4e 58 93 bd d8 5f ce 3c
       -0.14150706 0.0027910648 -0.07194577 0.025192186
000070 18 da d6 3c 96 fe f5 3c 22 c8 43 3c ff f3 e2 bc
       0.026227042 0.030028623 0.011949571 -0.027704237
000080 9a 13 73 3c 5a 83 0c bd bb 49 ef 3c cd ab 0b 3d
       0.014836216 -0.034304954 0.029209962 0.03409939
000090 fc 7a 47 bd 8f 79 d1 ba b0 27 a6 3d a5 fd 1e bd
       -0.04870127 -0.0015981662 0.081130385 -0.038816113
0000a0 6e 38 fa bc e4 dd 12 bd 2a 76 85 3d 0d f3 2a 3c
       -0.030544486 -0.035856143 0.06516679 0.010433924
0000b0 f6 d2 5a 3c aa ab 03 3c 79 38 04 bd 41 f7 e4 bc
       0.013355961 0.008036533 -0.03228042 -0.027949931
0000c0 5c d1 77 bb ae 59 1c bd d8 6d 1f 3e f1 2a 76 3d
       -0.0037813997 -0.038171463 0.15569246 0.060099546
0000d0 81 56 2b 3d fb f3 f8 ba 42 aa 1a bd 42 c2 df bc
       0.041830543 -0.001899361 -0.037760027 -0.027314309
0000e0 6b ab 99 3b 9b d3 80 bc 79 f1 96 3c f5 99 51 bd
       0.004689624 -0.015725901 0.01842569 -0.051172215
0000f0 a8 c4 b5 3c c6 f4 33 3c 06 c0 e5 3c 0a e4 e0 bc
       0.0221885 0.0109836515 0.028045665 -0.027452487
000100 b3 60 07 bd 20 a3 b5 3c 7b ee 92 3d ea d9 e0 bc
       -0.033051204 0.02217251 0.07174393 -0.02744766
000110 31 2b 4a bc 1c 4c a6 bd 4b c4 64 3c 68 13 e0 bc
       -0.012339399 -0.081199855 0.0139628155 -0.027353004
000120 c5 04 dc bd f3 bf 7b 3d 85 24 3b bc 5e 5d 47 3c
       -0.10743097 0.061462354 -0.011422281 0.012168257
000130 4b 0e 12 bc c7 14 99 3c 54 8d 11 bd 6e 48 d9 3d
       -0.0089145405 0.018686665 -0.03553517 0.10609518
000140 79 0e ed bd 01 21 1a bd 04 3a 54 3e 6b 54 41 bd
       -0.11575026 -0.03762913 0.20725256 -0.047199648
000150 47 95 74 bc 8e 2b 09 bd bd 9d 2a bc b7 12 89 bb
       -0.014928169 -0.033488803 -0.010413584 -0.004183139
000160 ef 7f 16 3c b5 bc 13 3d 4f f3 2b 3d 6a 75 1d bd
       0.009185775 0.036068637 0.041980084 -0.038442053
000170 a1 66 c0 3c 88 90 cd 3c 8b 46 72 bd ad 8f c8 3c
       0.023486437 0.025093332 -0.059149306 0.024482572
000180 ff 92 bb 3c 68 e8 0d 3d c2 dd 64 3d 72 6b 07 bd
       0.022897242 0.034645468 0.055875547 -0.033061452
000190 00 fd a8 bc 8a 64 15 3d 0a 9a 5b bd dd 0d 0d bc
       -0.020628452 0.036472835 -0.0536137 -0.008609262
0001a0 d5 8b fc bc 11 7b 89 3d f0 f3 36 3d 39 ae c0 bd
       -0.030828396 0.06712926 0.04466623 -0.0940823
0001b0 23 a7 58 bd 28 06 f1 3b ef 46 3a 3d 88 1c 64 bd
       -0.05289377 0.00735547 0.045477804 -0.055691272
0001c0 85 db f2 bd b9 34 51 3c 86 f4 e1 3d d1 33 36 3d
       -0.11858276 0.012768918 0.11032967 0.04448301
0001d0 2e 3c ed 3d 42 f6 a3 3b 3d 9f c2 bc 95 fd a1 bc
       0.11583744 0.0050037215 -0.023757571 -0.019774238
0001e0 39 4b 9a bb d4 31 df bc a2 04 8c 3d bd 85 87 bc
       -0.0047086743 -0.02724544 0.06836821 -0.016543264
0001f0 4f 0e 78 bc e2 30 6f 3d 23 cd b8 bc 47 44 21 bd
       -0.01514013 0.058396228 -0.022558754 -0.039371755
000200 22 6d 9f bc fe b6 84 bd 86 3b 45 3c ca bf a7 3c
       -0.019461218 -0.064802155 0.012038117 0.020477194
000210 be c1 9e 3d 70 09 05 bc 8c 0f a7 bc b3 c2 f9 bc
       0.07751797 -0.008119926 -0.020393156 -0.030488348
000220 3b bd 2d bd 4e 0a e9 bd e6 40 a7 bd 51 5d e3 3c
       -0.042416792 -0.113789186 -0.08166675 0.027754458
000230 ca de 10 3d d9 61 78 3c 68 f1 82 3c 2c d4 a2 3c
       0.03536872 0.015160047 0.015984252 0.019876562
000240 2b bb 7c 3d 97 ef 26 3b b2 a3 81 bd 22 40 d9 bd
       0.061701935 0.0025472397 -0.063300505 -0.106079355
000250 d6 fb 12 3c 74 a9 50 bc 4d 40 3e 3d f7 33 a6 3c
       0.008971175 -0.012735713 0.04644804 0.02028845
000260 8f 13 c2 3d 35 41 05 bd 57 c8 00 bd de 1d 29 bd
       0.09476387 -0.03253289 -0.03144106 -0.04128825
000270 22 2d 2b 3e 46 d2 b4 3c 58 3c c9 bc fb 05 f4 3d
       0.16716436 0.022072922 -0.024564907 0.11915203
000280 22 b4 60 bd b2 82 4e 3d c4 ce 92 bd bb ac 92 bd
       -0.054859288 0.05041761 -0.07168344 -0.07161852
000290 0a 3f 21 bd 6d b3 3a 3d 64 40 aa bc 15 54 e7 3c
       -0.03936676 0.04558127 -0.020782657 0.028238336
0002a0 7d 69 40 3d 46 f6 05 bc ed f0 8a bd 5b 21 66 3d
       0.0469756 -0.008176392 -0.06784234 0.056184154
0002b0 d0 a5 e4 3b af 55 2d bd e6 1c f0 3c 38 ab 56 bb
       0.006977774 -0.042318042 0.029310655 -0.0032755863
0002c0 c6 40 41 3d 66 72 e0 3b 43 8f 19 bd 5d 57 b1 3b
       0.047180913 0.006849575 -0.03749014 0.005412026
0002d0 f1 b0 dd b9 13 24 99 bd e1 c6 19 3e da ed 8e 3c
       -0.00042284236 -0.07477584 0.15017273 0.0174474
0002e0 53 b6 47 bd 8e df 75 bc c7 5b 39 3d 69 62 c0 bc
       -0.048757862 -0.015006913 0.04525354 -0.023484426
0002f0 fb a9 9b bd 8f 8a 39 bd 02 a4 91 3b af 0b 29 bc
       -0.076007806 -0.045298155 0.0044446 -0.010317727
000300 e0 fa 7b bc fb 47 23 be e7 68 6c bb cf e1 cf bb
       -0.0153796375 -0.15945427 -0.003607327 -0.006344057
000310 a3 c9 22 bc 02 9d a7 3b e1 4c 70 bd c5 7f fb bd
       -0.009935769 0.0051151523 -0.058667067 -0.122802295
000320 51 a0 9e bc 48 06 34 3c e8 2d 7d bd 4b 38 17 be
       -0.019363554 0.010987826 -0.061811358 -0.14767568
000330 3d 2d b0 bb 77 56 1b 3d bf cc 5a 3c 7d cd 97 3c
       -0.0053764866 0.037924256 0.013354479 0.018530602
000340 92 68 52 3d d9 af 90 bd 71 c9 a2 3b 19 3a f4 bc
       0.051369257 -0.0706479 0.0049678613 -0.02981286
000350 8b 96 89 39 2a a8 8a 3d cb 61 06 bd 84 62 23 3d
       0.0002624284 0.06770356 -0.032808106 0.039888874
000360 84 1b ba 3c f1 2a ee 3c be df 55 3d 45 cd 0e bd
       0.022718199 0.02907321 0.05221533 -0.03486373
000370 47 22 5c bc a3 6a ab bc 6e fe 96 bc cd f6 e3 3c
       -0.013435907 -0.020924872 -0.018431868 0.027827645
000380 df 40 57 3d e0 c8 9a 3d e1 c9 ea bc f0 ed 99 bd
       0.0525521 0.07557845 -0.028660716 -0.07516086
000390 a7 f5 d6 bc e9 3a 36 3e 66 da 88 3d 3a e7 c1 ba
       -0.026240183 0.1779591 0.06682281 -0.0014793642
0003a0 5c e0 09 3d ce 44 73 bd 72 71 a4 bc f2 e5 7b bd
       0.03366123 -0.05939179 -0.020073626 -0.06149859
0003b0 aa de 7c 3d 37 ca 87 bc c5 5e 4e 3d 48 62 09 3d
       0.061735786 -0.016575916 0.050383348 0.033540994
0003c0 a9 3a 8f bd 1e 24 69 bc 78 89 1e 3d 5c 41 84 3d
       -0.069936104 -0.014229802 0.03870532 0.06457779
0003d0 9a f5 e2 3c 0b 27 83 bc 73 67 80 3c 4a 47 55 bd
       0.027705003 -0.016009828 0.015674328 -0.05206994
0003e0 c5 04 88 bd 91 5d e0 bc de 06 94 bc d0 21 c7 3d
       -0.06641535 -0.027388366 -0.01806968 0.09723246
0003f0 15 21 87 3d 35 b4 83 3c 0f 30 2b bd b2 0e 5a 3d
       0.06598107 0.01607714 -0.04179388 0.05323667

fc_model.3.bias f4 [84]
000000 3b 90 12 3d 28 6a 1f be 7b ac 49 3e 40 1a c2 bc
       0.03578208 -0.15567839 0.19694702 -0.023694158
000010 fe b9 64 3e 46 e9 1b 3e fd 6b 79 bc 4a 96 80 ba
       0.22336575 0.15225706 -0.0152235 -0.0009810415
000020 e1 9f bb bd af f1 0f be bf 30 25 bc d3 52 19 bd
       -0.09161354 -0.14057039 -0.010082423 -0.037432503
000030 57 8e a5 3d e6 d9 2f be 5b 35 b6 3d 96 a3 da 3d
       0.0808379 -0.17172965 0.088968955 0.10675733
000040 78 28 03 be 1d a4 89 3e e0 8a e2 3d c9 14 c4 bd
       -0.12808406 0.2688302 0.110616446 -0.09574277
000050 7d 6f 07 be 1b 90 27 be e3 d3 4b 3e 25 20 ae bd
       -0.13226123 -0.16363566 0.19905047 -0.08502225
000060 9e 36 8b 3e 58 93 ae bd f2 61 75 3d 99 12 49 be
       0.27190107 -0.08524197 0.05990786 -0.19636
000070 80 9c f5 3d c4 c8 29 3e 35 09 a3 3c c0 38 22 3e
       0.11992741 0.16580492 0.019901851 0.15841961
000080 8a c0 4c 3d 73 91 9e 3d e6 f0 a6 bd 12 75 f6 bc
       0.049988307 0.07742586 -0.081514165 -0.03008512
000090 bc 86 f4 3d 48 36 f3 bd 78 83 7d be 1d 88 18 bd
       0.11939761 -0.11875588 -0.24757183 -0.037239183
0000a0 08 d8 71 3d 6a b5 ba bc 67 59 ae 3e c5 a5 06 bd
       0.059043914 -0.022791583 0.34052584 -0.032872934
0000b0 58 a7 aa 3d 2e 00 37 3e d3 30 f2 bd aa 77 99 37
       0.083326995 0.17871162 -0.11825719 1.8294744e-05
0000c0 f3 cb c6 bc 11 52 22 3e 20 f1 c5 bd 4c 39 52 be
       -0.024267172 0.15851618 -0.096651316 -0.2052967
0000d0 5c 94 ed 3d 3f e1 e4 3d 98 46 16 3d 92 45 a0 3d
       0.11600563 0.11175775 0.036688417 0.078257695
0000e0 e3 46 ab 3d 35 d6 6b 3d 5c fb a9 3d 0e 9a a6 3e
       0.0836313 0.05757733 0.08299896 0.3253941
0000f0 f7 74 0a 3e 01 16 1c 3e 77 91 c1 bd 99 5b 33 3e
       0.13521181 0.15242769 -0.09451573 0.1751541
000100 90 4f a9 3c a8 2b 98 bd a4 f7 0d bd b3 a6 89 be
       0.020667821 -0.07430202 -0.034659997 -0.26884994
000110 92 d3 da 3d df 4c d0 bd 2b 3d 25 3e 8d f5 5b 3d
       0.10684885 -0.10170912 0.16136615 0.053700972
000120 d5 6f 82 be 69 00 a4 bd 21 09 51 be e9 f5 e4 bc
       -0.25475946 -0.08007891 -0.20413639 -0.02794929
000130 65 67 01 be c9 8b 8b 3d 02 20 45 3d 7f 2d e1 bd
       -0.12637098 0.06813771 0.04812623 -0.10995006
000140 41 b4 0f be 77 76 ba 3d 1d ce 15 3c 9e d7 4c 3e
       -0.14033605 0.091046266 0.0091433795 0.20004126

fc_model.6.weight f4 [10, 84]
000000 27 80 bf bb 2e 23 ab 3d b5 1e 31 3d fd 6c 85 3d
       -0.0058441344 0.08356319 0.043242175 0.065149285
000010 38 59 b8 3d df 42 e3 3d d8 ab 24 be 4e 46 cd bd
       0.09001392 0.11096739 -0.16081178 -0.10023175
000020 6a 4f c3 3a 6c 31 c8 3c a9 bc 8e bd 59 c7 85 bd
       0.0014900987 0.024437629 -0.06969578 -0.06532163
000030 b4 9c 4e 3d 89 ef de bd bd 37 b1 bd ea 9e a7 3d
       0.050442412 -0.108855315 -0.08653209 0.08184607
000040 a5 94 1f 3d ea e6 e9 3d 29 92 02 3e f3 a0 ba bd
       0.038960118 0.114209965 0.12751068 -0.0911273
000050 25 12 de bc 65 30 3f bd 79 1d 8a bb f9 b3 19 bd
       -0.027108261 -0.046677012 -0.004214939 -0.03752515
000060 b5 27 ed 3d 83 4d 21 be b5 7a 3b 3c 18 c5 cf 3c
       0.11579839 -0.15752225 0.01144283 0.025362536
000070 2e 5f d6 3c da b8 00 be ba b1 cb bc 54 be b5 bd
       0.026168432 -0.12570515 -0.02486502 -0.08874193
000080 ac bb 93 bd d9 13 8a 3d 29 c9 1e bd d7 52 db 3d
       -0.0721353 0.06742067 -0.03876606 0.1070916
000090 c9 f2 6d 3d d1 23 97 3d 31 74 c3 bc 70 ae 6a bd
       0.058092866 0.07379878 -0.023859115 -0.057295263
0000a0 1a f2 f7 3d cf 57 e9 bc b7 3e f6 3d 0f a0 cb bd
       0.12106724 -0.028484253 0.12023681 -0.09942638
0000b0 e7 96 e6 bd 01 fd ee 3b 54 ba 78 bd eb 3a 90 bc
       -0.11259251 0.007293344 -0.06072457 -0.01760622
0000c0 ce 83 7f 3c 44 1c bf 3c 32 ea f3 bc 8f c6 cb 3d
       0.0155953895 0.023328908 -0.029774759 0.099499814
0000d0 ea c0 97 bb 30 f8 d6 3d 06 9e 7a 3d 66 70 13 3d
       -0.0046311514 0.10496557 0.06118586 0.035995863
0000e0 81 f3 4f 3d b3 64 b0 3d f6 4e 8b bd 26 d5 f4 bd
       0.050769333 0.08612957 -0.0680217 -0.11954717
0000f0 3f af 22 3d 8b a8 8e 3d 83 5c 8c 3d 33 36 27 3d
       0.03971791 0.06965741 0.06853583 0.040823173
000100 a9 d8 a0 3d 61 20 10 3d fd 8b c5 3c 27 16 cd bd
       0.07853825 0.03518713 0.024114603 -0.10013991
000110 e0 aa 85 3d ff e3 8d 3b 13 35 e4 3d d7 4e b5 bc
       0.065267324 0.004330158 0.111429356 -0.02213232
000120 df 67 a4 bd df 41 e1 3d a5 76 99 bd ce 27 bc bd
       -0.08027624 0.10998892 -0.07493333 -0.0918728
000130 89 5a 96 bd 17 0c 3e 3c 54 63 f1 3d 31 e2 93 bd
       -0.07341487 0.011599562 0.117865235 -0.07220877
000140 a4 9a 92 bd 2f 19 a8 3b 2a 53 25 3d 52 8b 6f 3d
       -0.071584016 0.0051299552 0.040362515 0.058482476
000150 3e e0 b3 bd 52 f9 30 bd 0b 43 42 3d b6 9c ba bd
       -0.08783005 -0.04320652 0.04742722 -0.091119215
000160 a1 63 db 3d 2c 03 38 3c 5f b5 33 be 65 10 1b 3d
       0.10712362 0.011231225 -0.17549656 0.037857432
000170 51 f8 dc 3d 2a 3a 06 be 96 28 3d 3d a4 1f ff bd
       0.1078955 -0.13108125 0.046181284 -0.12457207
000180 75 07 44 3d 37 66 02 be 8e dc 65 bb e2 44 c0 3d
       0.047858674 -0.12734304 -0.0035074088 0.09388138
000190 8d b3 9e bd d9 6e ba 3d 78 95 19 3e 77 ae 96 bd
       -0.0774909 0.09103174 0.14998424 -0.07357495
0001a0 82 08 fa 3c bb 80 0b be e8 77 18 3d 85 0b ef 3d
       0.030521635 -0.13623326 0.037223727 0.11672119
0001b0 a4 92 d2 3d 69 ee 0d be 5c 6b e9 bc 4f c4 df 3d
       0.10281876 -0.13860478 -0.028493576 0.10926115
0001c0 5d 8e 5c 3d e2 ef 14 3d 94 ba 83 3d c9 d1 cf 3d
       0.053846706 0.036361583 0.06432071 0.10147435
0001d0 f5 ba c5 3d e5 5b 9a 3d 8a 98 4b bd 18 19 03 3e
       0.096548 0.07537059 -0.04970602 0.12802541
0001e0 18 9f 75 3d 52 fd b5 bd 55 ec 5a bd a4 de ab bc
       0.059966177 -0.08886208 -0.05344804 -0.020980187
0001f0 5a 7c e6 3d a2 a2 43 3e 2c e1 cb 3d ad 67 84 3d
       0.11254187 0.19105008 0.099550575 0.06465087
000200 38 4c 7d 3d 96 74 6f bc 79 48 e0 bc fc 38 1a be
       0.061840266 -0.014615199 -0.027378308 -0.150608
000210 49 fb 1d 3e 86 b5 fe 3d 7d 5b 09 be 45 54 5e bd
       0.15427889 0.124369666 -0.13413806 -0.054279584
000220 b1 ec c3 3d 59 de f3 3d 92 28 f8 bd be 5c 7c bd
       0.0956663 0.11907644 -0.12117113 -0.061611883
000230 a4 95 6d bd 8f ae d4 3d e7 9c 9e 3d 23 5f 58 3d
       -0.058004037 0.10384857 0.077447705 0.052825104
000240 60 5e b2 bd fb 17 73 bd 97 13 17 bd fc 6f 58 3d
       -0.08709407 -0.05934904 -0.036883917 0.05284117
000250 9e a6 cc 3d 0c e7 b1 bd 34 ef ed bd a1 e4 93 bd
       0.09992717 -0.08686647 -0.1161789 -0.07221342
000260 e0 7a d4 3d d1 b4 ac bd cc 37 80 3d 40 35 66 bc
       0.10374999 -0.084329255 0.062606424 -0.014050782
000270 1b da ca bd 44 f4 32 3b e1 41 22 3c 58 66 3b 3b
       -0.099048816 0.0027306238 0.009903402 0.0028594937
000280 65 3a eb 3c 51 c5 31 be 3e 75 60 3d 92 14 82 bd
       0.028714368 -0.17360426 0.05479931 -0.0635158
000290 ae da fd 3d 65 21 ce 3d d6 af 61 bd 84 d5 ae 3d
       0.123952255 0.10064963 -0.05509933 0.085368186
0002a0 3a 42 a9 3d 65 28 cf bc 5f a2 87 bd 33 b9 b4 bd
       0.08264585 -0.025287816 -0.06622767 -0.088243864
0002b0 0b f1 eb bb 01 be 56 bd 31 67 b3 3c 64 f2 41 3b
       -0.0072003654 -0.052427296 0.021899791 0.002959394
0002c0 bb 71 da bc 53 e0 8d 3c 75 fb 9d bd 58 a1 95 3c
       -0.026665559 0.01731888 -0.07713977 0.018265411
0002d0 0f 90 87 bc bc 94 7d bc 65 59 be bd 48 64 9f 3d
       -0.016548185 -0.015477356 -0.092943944 0.07782799
0002e0 fc 77 46 bd ee 76 aa 3d 14 ad f5 bc 53 97 49 3d
       -0.04845427 0.08323465 -0.029989757 0.04921658
0002f0 61 f2 c1 bd c2 cb 17 3d 2f cd d7 3c 62 e8 af bd
       -0.09470058 0.037059553 0.026342956 -0.085892454
000300 49 d6 9d bd 0a ed 4a 3d 0b d0 50 3d 48 ba fe 3c
       -0.07706887 0.049542464 0.050979655 0.031094685
000310 34 e7 c5 bd 03 35 b5 bd d6 47 39 3d 50 1a 6b bc
       -0.09663239 -0.08848002 0.045234524 -0.014349535
000320 fb 8f 6c bd 0a e3 b1 bc 9c fc 88 3d 4f 94 87 bd
       -0.057754498 -0.021714706 0.066888064 -0.066200845
000330 42 31 c4 bd 03 48 a8 3d b5 42 be 3d a9 f4 98 bd
       -0.09579708 0.0821686 0.09290067 -0.0746854
000340 6f 6f cb bd 94 f0 18 bd 63 84 40 3c 01 99 98 bd
       -0.09933364 -0.03733881 0.011750313 -0.07451058
000350 89 e4 27 3c 56 58 86 3c ec c8 37 bd e7 ea 05 3d
       0.010247358 0.016399544 -0.04486935 0.032694723
000360 66 0e 51 3d 13 4f 37 3d 24 d8 c3 3d 7c b5 a4 3d
       0.051039122 0.044753145 0.0956271 0.08042428
000370 e3 ec 88 3d 51 37 b4 bd 4f 0d bc 3d 29 30 42 3d
       0.066858076 -0.08799613 0.09182226 0.04740921
000380 73 40 9d 3d e0 69 b0 3d 6f 95 60 bd 3a 3a 19 bd
       0.07678308 0.08613944 -0.05483001 -0.037409045
000390 f0 05 a8 3d 39 13 59 3d c7 72 88 bc 95 91 74 3d
       0.082042575 0.052996848 -0.016656293 0.05970915
0003a0 a8 e4 20 bd 70 32 88 3d 59 98 a3 3c ee 57 be 3d
       -0.039280564 0.06650245 0.019970106 0.09294115
0003b0 29 57 9c bd 09 b7 4f 3d e7 6f 4f bd 54 bb ab bd
       -0.07633812 0.050711665 -0.050643828 -0.083853394
0003c0 31 bf ac 3d 22 d3 37 3d 32 6c 7f bc e7 d9 57 bd
       0.08434904 0.044879086 -0.015589761 -0.052698042
0003d0 b5 55 c9 bd a3 e9 e0 3c 81 ca 94 3d 2d ec 84 bd
       -0.098308004 0.027455157 0.07265187 -0.064903595
0003e0 b2 03 1b 3d 5a bf 48 bd 70 ca ce 3d 29 f6 e7 bc
       0.03784532 -0.049010612 0.10097206 -0.02831562
0003f0 1d 7d 35 3d ed 16 ee 3b 78 99 dd bd cb ae b8 bc
       0.04430877 0.0072659166 -0.108202875 -0.022544285

fc_model.6.bias f4 [10]
000000 77 2b 2b 3e 9e 51 4c be 97 be 2c 3e ed 01 43 3d
       0.167158 -0.1995301 0.1686958 0.04760926
000010 13 be 3b 3c 39 0a 4d bd d6 31 83 be bb 5c 2b bd
       0.011458891 -0.050058577 -0.2562396 -0.04183648
000020 e7 e9 2c bd 79 57 0e 3d
       -0.042215254 0.03475139
